…
I1014 22:27:10.971058  9093 net.cpp:294] The NetState phase (0) differed from the phase (1) specified by a rule in layer accuracy_top5
I1014 22:27:10.971673  9093 net.cpp:51] Initializing net from parameters: 
state {
  phase: TRAIN
  level: 0
  stage: ""
}
layer {
  name: "data"
  type: "Data"
  top: "data"
  top: "label"
  include {
    phase: TRAIN
  }
  transform_param {
    crop_size: 227
    mean_value: 104
    mean_value: 117
    mean_value: 123
  }
  data_param {
    source: "examples/imagenet/ilsvrc12_train_lmdb"
    batch_size: 32
    backend: LMDB
  }
}
layer {
  name: "conv1"
  type: "Convolution"
  bottom: "data"
  top: "conv1"
  convolution_param {
    num_output: 96
    kernel_size: 7
    stride: 2
    weight_filler {
      type: "xavier"
    }
  }
}
layer {
  name: "relu_conv1"
  type: "ReLU"
  bottom: "conv1"
  top: "conv1"
}
layer {
  name: "pool1"
  type: "Pooling"
  bottom: "conv1"
  top: "pool1"
  pooling_param {
    pool: MAX
    kernel_size: 3
    stride: 2
  }
}
layer {
  name: "fire2/squeeze1x1"
  type: "Convolution"
  bottom: "pool1"
  top: "fire2/squeeze1x1"
  convolution_param {
    num_output: 16
    kernel_size: 1
    weight_filler {
      type: "xavier"
    }
  }
}
layer {
  name: "fire2/relu_squeeze1x1"
  type: "ReLU"
  bottom: "fire2/squeeze1x1"
  top: "fire2/squeeze1x1"
}
layer {
  name: "fire2/expand1x1"
  type: "Convolution"
  bottom: "fire2/squeeze1x1"
  top: "fire2/expand1x1"
  convolution_param {
    num_output: 64
    kernel_size: 1
    weight_filler {
      type: "xavier"
    }
  }
}
layer {
  name: "fire2/relu_expand1x1"
  type: "ReLU"
  bottom: "fire2/expand1x1"
  top: "fire2/expand1x1"
}
layer {
  name: "fire2/expand3x3"
  type: "Convolution"
  bottom: "fire2/squeeze1x1"
  top: "fire2/expand3x3"
  convolution_param {
    num_output: 64
    pad: 1
    kernel_size: 3
    weight_filler {
      type: "xavier"
    }
  }
}
layer {
  name: "fire2/relu_expand3x3"
  type: "ReLU"
  bottom: "fire2/expand3x3"
  top: "fire2/expand3x3"
}
layer {
  name: "fire2/concat"
  type: "Concat"
  bottom: "fire2/expand1x1"
  bottom: "fire2/expand3x3"
  top: "fire2/concat"
}
layer {
  name: "fire3/squeeze1x1"
  type: "Convolution"
  bottom: "fire2/concat"
  top: "fire3/squeeze1x1"
  convolution_param {
    num_output: 16
    kernel_size: 1
    weight_filler {
      type: "xavier"
    }
  }
}
layer {
  name: "fire3/relu_squeeze1x1"
  type: "ReLU"
  bottom: "fire3/squeeze1x1"
  top: "fire3/squeeze1x1"
}
layer {
  name: "fire3/expand1x1"
  type: "Convolution"
  bottom: "fire3/squeeze1x1"
  top: "fire3/expand1x1"
  convolution_param {
    num_output: 64
    kernel_size: 1
    weight_filler {
      type: "xavier"
    }
  }
}
layer {
  name: "fire3/relu_expand1x1"
  type: "ReLU"
  bottom: "fire3/expand1x1"
  top: "fire3/expand1x1"
}
layer {
  name: "fire3/expand3x3"
  type: "Convolution"
  bottom: "fire3/squeeze1x1"
  top: "fire3/expand3x3"
  convolution_param {
    num_output: 64
    pad: 1
    kernel_size: 3
    weight_filler {
      type: "xavier"
    }
  }
}
layer {
  name: "fire3/relu_expand3x3"
  type: "ReLU"
  bottom: "fire3/expand3x3"
  top: "fire3/expand3x3"
}
layer {
  name: "fire3/concat"
  type: "Concat"
  bottom: "fire3/expand1x1"
  bottom: "fire3/expand3x3"
  top: "fire3/concat"
}
layer {
  name: "fire4/squeeze1x1"
  type: "Convolution"
  bottom: "fire3/concat"
  top: "fire4/squeeze1x1"
  convolution_param {
    num_output: 32
    kernel_size: 1
    weight_filler {
      type: "xavier"
    }
  }
}
layer {
  name: "fire4/relu_squeeze1x1"
  type: "ReLU"
  bottom: "fire4/squeeze1x1"
  top: "fire4/squeeze1x1"
}
layer {
  name: "fire4/expand1x1"
  type: "Convolution"
  bottom: "fire4/squeeze1x1"
  top: "fire4/expand1x1"
  convolution_param {
    num_output: 128
    kernel_size: 1
    weight_filler {
      type: "xavier"
    }
  }
}
layer {
  name: "fire4/relu_expand1x1"
  type: "ReLU"
  bottom: "fire4/expand1x1"
  top: "fire4/expand1x1"
}
layer {
  name: "fire4/expand3x3"
  type: "Convolution"
  bottom: "fire4/squeeze1x1"
  top: "fire4/expand3x3"
  convolution_param {
    num_output: 128
    pad: 1
    kernel_size: 3
    weight_filler {
      type: "xavier"
    }
  }
}
layer {
  name: "fire4/relu_expand3x3"
  type: "ReLU"
  bottom: "fire4/expand3x3"
  top: "fire4/expand3x3"
}
layer {
  name: "fire4/concat"
  type: "Concat"
  bottom: "fire4/expand1x1"
  bottom: "fire4/expand3x3"
  top: "fire4/concat"
}
layer {
  name: "pool4"
  type: "Pooling"
  bottom: "fire4/concat"
  top: "pool4"
  pooling_param {
    pool: MAX
    kernel_size: 3
    stride: 2
  }
}
layer {
  name: "fire5/squeeze1x1"
  type: "Convolution"
  bottom: "pool4"
  top: "fire5/squeeze1x1"
  convolution_param {
    num_output: 32
    kernel_size: 1
    weight_filler {
      type: "xavier"
    }
  }
}
layer {
  name: "fire5/relu_squeeze1x1"
  type: "ReLU"
  bottom: "fire5/squeeze1x1"
  top: "fire5/squeeze1x1"
}
layer {
  name: "fire5/expand1x1"
  type: "Convolution"
  bottom: "fire5/squeeze1x1"
  top: "fire5/expand1x1"
  convolution_param {
    num_output: 128
    kernel_size: 1
    weight_filler {
      type: "xavier"
    }
  }
}
layer {
  name: "fire5/relu_expand1x1"
  type: "ReLU"
  bottom: "fire5/expand1x1"
  top: "fire5/expand1x1"
}
layer {
  name: "fire5/expand3x3"
  type: "Convolution"
  bottom: "fire5/squeeze1x1"
  top: "fire5/expand3x3"
  convolution_param {
    num_output: 128
    pad: 1
    kernel_size: 3
    weight_filler {
      type: "xavier"
    }
  }
}
layer {
  name: "fire5/relu_expand3x3"
  type: "ReLU"
  bottom: "fire5/expand3x3"
  top: "fire5/expand3x3"
}
layer {
  name: "fire5/concat"
  type: "Concat"
  bottom: "fire5/expand1x1"
  bottom: "fire5/expand3x3"
  top: "fire5/concat"
}
layer {
  name: "fire6/squeeze1x1"
  type: "Convolution"
  bottom: "fire5/concat"
  top: "fire6/squeeze1x1"
  convolution_param {
    num_output: 48
    kernel_size: 1
    weight_filler {
      type: "xavier"
    }
  }
}
layer {
  name: "fire6/relu_squeeze1x1"
  type: "ReLU"
  bottom: "fire6/squeeze1x1"
  top: "fire6/squeeze1x1"
}
layer {
  name: "fire6/expand1x1"
  type: "Convolution"
  bottom: "fire6/squeeze1x1"
  top: "fire6/expand1x1"
  convolution_param {
    num_output: 192
    kernel_size: 1
    weight_filler {
      type: "xavier"
    }
  }
}
layer {
  name: "fire6/relu_expand1x1"
  type: "ReLU"
  bottom: "fire6/expand1x1"
  top: "fire6/expand1x1"
}
layer {
  name: "fire6/expand3x3"
  type: "Convolution"
  bottom: "fire6/squeeze1x1"
  top: "fire6/expand3x3"
  convolution_param {
    num_output: 192
    pad: 1
    kernel_size: 3
    weight_filler {
      type: "xavier"
    }
  }
}
layer {
  name: "fire6/relu_expand3x3"
  type: "ReLU"
  bottom: "fire6/expand3x3"
  top: "fire6/expand3x3"
}
layer {
  name: "fire6/concat"
  type: "Concat"
  bottom: "fire6/expand1x1"
  bottom: "fire6/expand3x3"
  top: "fire6/concat"
}
layer {
  name: "fire7/squeeze1x1"
  type: "Convolution"
  bottom: "fire6/concat"
  top: "fire7/squeeze1x1"
  convolution_param {
    num_output: 48
    kernel_size: 1
    weight_filler {
      type: "xavier"
    }
  }
}
layer {
  name: "fire7/relu_squeeze1x1"
  type: "ReLU"
  bottom: "fire7/squeeze1x1"
  top: "fire7/squeeze1x1"
}
layer {
  name: "fire7/expand1x1"
  type: "Convolution"
  bottom: "fire7/squeeze1x1"
  top: "fire7/expand1x1"
  convolution_param {
    num_output: 192
    kernel_size: 1
    weight_filler {
      type: "xavier"
    }
  }
}
layer {
  name: "fire7/relu_expand1x1"
  type: "ReLU"
  bottom: "fire7/expand1x1"
  top: "fire7/expand1x1"
}
layer {
  name: "fire7/expand3x3"
  type: "Convolution"
  bottom: "fire7/squeeze1x1"
  top: "fire7/expand3x3"
  convolution_param {
    num_output: 192
    pad: 1
    kernel_size: 3
    weight_filler {
      type: "xavier"
    }
  }
}
layer {
  name: "fire7/relu_expand3x3"
  type: "ReLU"
  bottom: "fire7/expand3x3"
  top: "fire7/expand3x3"
}
layer {
  name: "fire7/concat"
  type: "Concat"
  bottom: "fire7/expand1x1"
  bottom: "fire7/expand3x3"
  top: "fire7/concat"
}
layer {
  name: "fire8/squeeze1x1"
  type: "Convolution"
  bottom: "fire7/concat"
  top: "fire8/squeeze1x1"
  convolution_param {
    num_output: 64
    kernel_size: 1
    weight_filler {
      type: "xavier"
    }
  }
}
layer {
  name: "fire8/relu_squeeze1x1"
  type: "ReLU"
  bottom: "fire8/squeeze1x1"
  top: "fire8/squeeze1x1"
}
layer {
  name: "fire8/expand1x1"
  type: "Convolution"
  bottom: "fire8/squeeze1x1"
  top: "fire8/expand1x1"
  convolution_param {
    num_output: 256
    kernel_size: 1
    weight_filler {
      type: "xavier"
    }
  }
}
layer {
  name: "fire8/relu_expand1x1"
  type: "ReLU"
  bottom: "fire8/expand1x1"
  top: "fire8/expand1x1"
}
layer {
  name: "fire8/expand3x3"
  type: "Convolution"
  bottom: "fire8/squeeze1x1"
  top: "fire8/expand3x3"
  convolution_param {
    num_output: 256
    pad: 1
    kernel_size: 3
    weight_filler {
      type: "xavier"
    }
  }
}
layer {
  name: "fire8/relu_expand3x3"
  type: "ReLU"
  bottom: "fire8/expand3x3"
  top: "fire8/expand3x3"
}
layer {
  name: "fire8/concat"
  type: "Concat"
  bottom: "fire8/expand1x1"
  bottom: "fire8/expand3x3"
  top: "fire8/concat"
}
layer {
  name: "pool8"
  type: "Pooling"
  bottom: "fire8/concat"
  top: "pool8"
  pooling_param {
    pool: MAX
    kernel_size: 3
    stride: 2
  }
}
layer {
  name: "fire9/squeeze1x1"
  type: "Convolution"
  bottom: "pool8"
  top: "fire9/squeeze1x1"
  convolution_param {
    num_output: 64
    kernel_size: 1
    weight_filler {
      type: "xavier"
    }
  }
}
layer {
  name: "fire9/relu_squeeze1x1"
  type: "ReLU"
  bottom: "fire9/squeeze1x1"
  top: "fire9/squeeze1x1"
}
layer {
  name: "fire9/expand1x1"
  type: "Convolution"
  bottom: "fire9/squeeze1x1"
  top: "fire9/expand1x1"
  convolution_param {
    num_output: 256
    kernel_size: 1
    weight_filler {
      type: "xavier"
    }
  }
}
layer {
  name: "fire9/relu_expand1x1"
  type: "ReLU"
  bottom: "fire9/expand1x1"
  top: "fire9/expand1x1"
}
layer {
  name: "fire9/expand3x3"
  type: "Convolution"
  bottom: "fire9/squeeze1x1"
  top: "fire9/expand3x3"
  convolution_param {
    num_output: 256
    pad: 1
    kernel_size: 3
    weight_filler {
      type: "xavier"
    }
  }
}
layer {
  name: "fire9/relu_expand3x3"
  type: "ReLU"
  bottom: "fire9/expand3x3"
  top: "fire9/expand3x3"
}
layer {
  name: "fire9/concat"
  type: "Concat"
  bottom: "fire9/expand1x1"
  bottom: "fire9/expand3x3"
  top: "fire9/concat"
}
layer {
  name: "drop9"
  type: "Dropout"
  bottom: "fire9/concat"
  top: "fire9/concat"
  dropout_param {
    dropout_ratio: 0.5
  }
}
layer {
  name: "conv10"
  type: "Convolution"
  bottom: "fire9/concat"
  top: "conv10"
  convolution_param {
    num_output: 1000
    pad: 1
    kernel_size: 1
    weight_filler {
      type: "gaussian"
      mean: 0
      std: 0.01
    }
  }
}
layer {
  name: "relu_conv10"
  type: "ReLU"
  bottom: "conv10"
  top: "conv10"
}
layer {
  name: "pool10"
  type: "Pooling"
  bottom: "conv10"
  top: "pool10"
  pooling_param {
    pool: AVE
    global_pooling: true
  }
}
layer {
  name: "loss"
  type: "SoftmaxWithLoss"
  bottom: "pool10"
  bottom: "label"
  top: "loss"
  include {
    phase: TRAIN
  }
}
I1014 22:27:10.972188  9093 layer_factory.hpp:77] Creating layer data
I1014 22:27:10.986414  9093 db_lmdb.cpp:35] Opened lmdb examples/imagenet/ilsvrc12_train_lmdb
I1014 22:27:10.986512  9093 net.cpp:84] Creating Layer data
I1014 22:27:10.986991  9093 net.cpp:380] data -> data
I1014 22:27:10.987043  9093 net.cpp:380] data -> label
I1014 22:27:10.990114  9093 data_layer.cpp:45] output data size: 32,3,227,227
I1014 22:27:11.059896  9093 net.cpp:122] Setting up data
I1014 22:27:11.059934  9093 net.cpp:129] Top shape: 32 3 227 227 (4946784)
I1014 22:27:11.059939  9093 net.cpp:129] Top shape: 32 (32)
I1014 22:27:11.059943  9093 net.cpp:137] Memory required for data: 19787264
I1014 22:27:11.059957  9093 layer_factory.hpp:77] Creating layer conv1
I1014 22:27:11.059983  9093 net.cpp:84] Creating Layer conv1
I1014 22:27:11.060019  9093 net.cpp:406] conv1 <- data
I1014 22:27:11.060102  9093 net.cpp:380] conv1 -> conv1
I1014 22:27:13.145206  9093 net.cpp:122] Setting up conv1
I1014 22:27:13.145252  9093 net.cpp:129] Top shape: 32 96 111 111 (37850112)
I1014 22:27:13.145257  9093 net.cpp:137] Memory required for data: 171187712
I1014 22:27:13.145295  9093 layer_factory.hpp:77] Creating layer relu_conv1
I1014 22:27:13.145326  9093 net.cpp:84] Creating Layer relu_conv1
I1014 22:27:13.145335  9093 net.cpp:406] relu_conv1 <- conv1
I1014 22:27:13.145344  9093 net.cpp:367] relu_conv1 -> conv1 (in-place)
I1014 22:27:13.161775  9093 net.cpp:122] Setting up relu_conv1
I1014 22:27:13.161803  9093 net.cpp:129] Top shape: 32 96 111 111 (37850112)
I1014 22:27:13.161809  9093 net.cpp:137] Memory required for data: 322588160
I1014 22:27:13.161816  9093 layer_factory.hpp:77] Creating layer pool1
I1014 22:27:13.161835  9093 net.cpp:84] Creating Layer pool1
I1014 22:27:13.161841  9093 net.cpp:406] pool1 <- conv1
I1014 22:27:13.161855  9093 net.cpp:380] pool1 -> pool1
I1014 22:27:13.161959  9093 net.cpp:122] Setting up pool1
I1014 22:27:13.161974  9093 net.cpp:129] Top shape: 32 96 55 55 (9292800)
I1014 22:27:13.161979  9093 net.cpp:137] Memory required for data: 359759360
I1014 22:27:13.161988  9093 layer_factory.hpp:77] Creating layer fire2/squeeze1x1
I1014 22:27:13.162010  9093 net.cpp:84] Creating Layer fire2/squeeze1x1
I1014 22:27:13.162019  9093 net.cpp:406] fire2/squeeze1x1 <- pool1
I1014 22:27:13.162032  9093 net.cpp:380] fire2/squeeze1x1 -> fire2/squeeze1x1
I1014 22:27:13.166775  9093 net.cpp:122] Setting up fire2/squeeze1x1
I1014 22:27:13.166803  9093 net.cpp:129] Top shape: 32 16 55 55 (1548800)
I1014 22:27:13.166810  9093 net.cpp:137] Memory required for data: 365954560
I1014 22:27:13.166831  9093 layer_factory.hpp:77] Creating layer fire2/relu_squeeze1x1
I1014 22:27:13.166843  9093 net.cpp:84] Creating Layer fire2/relu_squeeze1x1
I1014 22:27:13.166848  9093 net.cpp:406] fire2/relu_squeeze1x1 <- fire2/squeeze1x1
I1014 22:27:13.166862  9093 net.cpp:367] fire2/relu_squeeze1x1 -> fire2/squeeze1x1 (in-place)
I1014 22:27:13.167340  9093 net.cpp:122] Setting up fire2/relu_squeeze1x1
I1014 22:27:13.167356  9093 net.cpp:129] Top shape: 32 16 55 55 (1548800)
I1014 22:27:13.167361  9093 net.cpp:137] Memory required for data: 372149760
I1014 22:27:13.167367  9093 layer_factory.hpp:77] Creating layer fire2/squeeze1x1_fire2/relu_squeeze1x1_0_split
I1014 22:27:13.167385  9093 net.cpp:84] Creating Layer fire2/squeeze1x1_fire2/relu_squeeze1x1_0_split
I1014 22:27:13.167392  9093 net.cpp:406] fire2/squeeze1x1_fire2/relu_squeeze1x1_0_split <- fire2/squeeze1x1
I1014 22:27:13.167403  9093 net.cpp:380] fire2/squeeze1x1_fire2/relu_squeeze1x1_0_split -> fire2/squeeze1x1_fire2/relu_squeeze1x1_0_split_0
I1014 22:27:13.167418  9093 net.cpp:380] fire2/squeeze1x1_fire2/relu_squeeze1x1_0_split -> fire2/squeeze1x1_fire2/relu_squeeze1x1_0_split_1
I1014 22:27:13.167500  9093 net.cpp:122] Setting up fire2/squeeze1x1_fire2/relu_squeeze1x1_0_split
I1014 22:27:13.167513  9093 net.cpp:129] Top shape: 32 16 55 55 (1548800)
I1014 22:27:13.167520  9093 net.cpp:129] Top shape: 32 16 55 55 (1548800)
I1014 22:27:13.167527  9093 net.cpp:137] Memory required for data: 384540160
I1014 22:27:13.167531  9093 layer_factory.hpp:77] Creating layer fire2/expand1x1
I1014 22:27:13.167547  9093 net.cpp:84] Creating Layer fire2/expand1x1
I1014 22:27:13.167554  9093 net.cpp:406] fire2/expand1x1 <- fire2/squeeze1x1_fire2/relu_squeeze1x1_0_split_0
I1014 22:27:13.167608  9093 net.cpp:380] fire2/expand1x1 -> fire2/expand1x1
I1014 22:27:13.172348  9093 net.cpp:122] Setting up fire2/expand1x1
I1014 22:27:13.172380  9093 net.cpp:129] Top shape: 32 64 55 55 (6195200)
I1014 22:27:13.172386  9093 net.cpp:137] Memory required for data: 409320960
I1014 22:27:13.172405  9093 layer_factory.hpp:77] Creating layer fire2/relu_expand1x1
I1014 22:27:13.172420  9093 net.cpp:84] Creating Layer fire2/relu_expand1x1
I1014 22:27:13.172426  9093 net.cpp:406] fire2/relu_expand1x1 <- fire2/expand1x1
I1014 22:27:13.172439  9093 net.cpp:367] fire2/relu_expand1x1 -> fire2/expand1x1 (in-place)
I1014 22:27:13.173502  9093 net.cpp:122] Setting up fire2/relu_expand1x1
I1014 22:27:13.173528  9093 net.cpp:129] Top shape: 32 64 55 55 (6195200)
I1014 22:27:13.173534  9093 net.cpp:137] Memory required for data: 434101760
I1014 22:27:13.173540  9093 layer_factory.hpp:77] Creating layer fire2/expand3x3
I1014 22:27:13.173564  9093 net.cpp:84] Creating Layer fire2/expand3x3
I1014 22:27:13.173570  9093 net.cpp:406] fire2/expand3x3 <- fire2/squeeze1x1_fire2/relu_squeeze1x1_0_split_1
I1014 22:27:13.173581  9093 net.cpp:380] fire2/expand3x3 -> fire2/expand3x3
I1014 22:27:13.176270  9093 net.cpp:122] Setting up fire2/expand3x3
I1014 22:27:13.176295  9093 net.cpp:129] Top shape: 32 64 55 55 (6195200)
I1014 22:27:13.176300  9093 net.cpp:137] Memory required for data: 458882560
I1014 22:27:13.176311  9093 layer_factory.hpp:77] Creating layer fire2/relu_expand3x3
I1014 22:27:13.176321  9093 net.cpp:84] Creating Layer fire2/relu_expand3x3
I1014 22:27:13.176327  9093 net.cpp:406] fire2/relu_expand3x3 <- fire2/expand3x3
I1014 22:27:13.176339  9093 net.cpp:367] fire2/relu_expand3x3 -> fire2/expand3x3 (in-place)
I1014 22:27:13.176786  9093 net.cpp:122] Setting up fire2/relu_expand3x3
I1014 22:27:13.176802  9093 net.cpp:129] Top shape: 32 64 55 55 (6195200)
I1014 22:27:13.176808  9093 net.cpp:137] Memory required for data: 483663360
I1014 22:27:13.176812  9093 layer_factory.hpp:77] Creating layer fire2/concat
I1014 22:27:13.176826  9093 net.cpp:84] Creating Layer fire2/concat
I1014 22:27:13.176831  9093 net.cpp:406] fire2/concat <- fire2/expand1x1
I1014 22:27:13.176838  9093 net.cpp:406] fire2/concat <- fire2/expand3x3
I1014 22:27:13.176846  9093 net.cpp:380] fire2/concat -> fire2/concat
I1014 22:27:13.176898  9093 net.cpp:122] Setting up fire2/concat
I1014 22:27:13.176911  9093 net.cpp:129] Top shape: 32 128 55 55 (12390400)
I1014 22:27:13.176919  9093 net.cpp:137] Memory required for data: 533224960
I1014 22:27:13.176924  9093 layer_factory.hpp:77] Creating layer fire3/squeeze1x1
I1014 22:27:13.176936  9093 net.cpp:84] Creating Layer fire3/squeeze1x1
I1014 22:27:13.176944  9093 net.cpp:406] fire3/squeeze1x1 <- fire2/concat
I1014 22:27:13.176956  9093 net.cpp:380] fire3/squeeze1x1 -> fire3/squeeze1x1
I1014 22:27:13.179463  9093 net.cpp:122] Setting up fire3/squeeze1x1
I1014 22:27:13.179486  9093 net.cpp:129] Top shape: 32 16 55 55 (1548800)
I1014 22:27:13.179491  9093 net.cpp:137] Memory required for data: 539420160
I1014 22:27:13.179508  9093 layer_factory.hpp:77] Creating layer fire3/relu_squeeze1x1
I1014 22:27:13.179523  9093 net.cpp:84] Creating Layer fire3/relu_squeeze1x1
I1014 22:27:13.179529  9093 net.cpp:406] fire3/relu_squeeze1x1 <- fire3/squeeze1x1
I1014 22:27:13.179538  9093 net.cpp:367] fire3/relu_squeeze1x1 -> fire3/squeeze1x1 (in-place)
I1014 22:27:13.179996  9093 net.cpp:122] Setting up fire3/relu_squeeze1x1
I1014 22:27:13.180011  9093 net.cpp:129] Top shape: 32 16 55 55 (1548800)
I1014 22:27:13.180016  9093 net.cpp:137] Memory required for data: 545615360
I1014 22:27:13.180021  9093 layer_factory.hpp:77] Creating layer fire3/squeeze1x1_fire3/relu_squeeze1x1_0_split
I1014 22:27:13.180037  9093 net.cpp:84] Creating Layer fire3/squeeze1x1_fire3/relu_squeeze1x1_0_split
I1014 22:27:13.180042  9093 net.cpp:406] fire3/squeeze1x1_fire3/relu_squeeze1x1_0_split <- fire3/squeeze1x1
I1014 22:27:13.180049  9093 net.cpp:380] fire3/squeeze1x1_fire3/relu_squeeze1x1_0_split -> fire3/squeeze1x1_fire3/relu_squeeze1x1_0_split_0
I1014 22:27:13.180094  9093 net.cpp:380] fire3/squeeze1x1_fire3/relu_squeeze1x1_0_split -> fire3/squeeze1x1_fire3/relu_squeeze1x1_0_split_1
I1014 22:27:13.180179  9093 net.cpp:122] Setting up fire3/squeeze1x1_fire3/relu_squeeze1x1_0_split
I1014 22:27:13.180193  9093 net.cpp:129] Top shape: 32 16 55 55 (1548800)
I1014 22:27:13.180227  9093 net.cpp:129] Top shape: 32 16 55 55 (1548800)
I1014 22:27:13.180232  9093 net.cpp:137] Memory required for data: 558005760
I1014 22:27:13.180240  9093 layer_factory.hpp:77] Creating layer fire3/expand1x1
I1014 22:27:13.180253  9093 net.cpp:84] Creating Layer fire3/expand1x1
I1014 22:27:13.180260  9093 net.cpp:406] fire3/expand1x1 <- fire3/squeeze1x1_fire3/relu_squeeze1x1_0_split_0
I1014 22:27:13.180274  9093 net.cpp:380] fire3/expand1x1 -> fire3/expand1x1
I1014 22:27:13.182823  9093 net.cpp:122] Setting up fire3/expand1x1
I1014 22:27:13.182847  9093 net.cpp:129] Top shape: 32 64 55 55 (6195200)
I1014 22:27:13.182854  9093 net.cpp:137] Memory required for data: 582786560
I1014 22:27:13.182865  9093 layer_factory.hpp:77] Creating layer fire3/relu_expand1x1
I1014 22:27:13.182888  9093 net.cpp:84] Creating Layer fire3/relu_expand1x1
I1014 22:27:13.182895  9093 net.cpp:406] fire3/relu_expand1x1 <- fire3/expand1x1
I1014 22:27:13.182907  9093 net.cpp:367] fire3/relu_expand1x1 -> fire3/expand1x1 (in-place)
I1014 22:27:13.183905  9093 net.cpp:122] Setting up fire3/relu_expand1x1
I1014 22:27:13.183929  9093 net.cpp:129] Top shape: 32 64 55 55 (6195200)
I1014 22:27:13.183936  9093 net.cpp:137] Memory required for data: 607567360
I1014 22:27:13.183941  9093 layer_factory.hpp:77] Creating layer fire3/expand3x3
I1014 22:27:13.183959  9093 net.cpp:84] Creating Layer fire3/expand3x3
I1014 22:27:13.183969  9093 net.cpp:406] fire3/expand3x3 <- fire3/squeeze1x1_fire3/relu_squeeze1x1_0_split_1
I1014 22:27:13.183981  9093 net.cpp:380] fire3/expand3x3 -> fire3/expand3x3
I1014 22:27:13.186625  9093 net.cpp:122] Setting up fire3/expand3x3
I1014 22:27:13.186646  9093 net.cpp:129] Top shape: 32 64 55 55 (6195200)
I1014 22:27:13.186666  9093 net.cpp:137] Memory required for data: 632348160
I1014 22:27:13.186676  9093 layer_factory.hpp:77] Creating layer fire3/relu_expand3x3
I1014 22:27:13.186686  9093 net.cpp:84] Creating Layer fire3/relu_expand3x3
I1014 22:27:13.186694  9093 net.cpp:406] fire3/relu_expand3x3 <- fire3/expand3x3
I1014 22:27:13.186707  9093 net.cpp:367] fire3/relu_expand3x3 -> fire3/expand3x3 (in-place)
I1014 22:27:13.187135  9093 net.cpp:122] Setting up fire3/relu_expand3x3
I1014 22:27:13.187153  9093 net.cpp:129] Top shape: 32 64 55 55 (6195200)
I1014 22:27:13.187157  9093 net.cpp:137] Memory required for data: 657128960
I1014 22:27:13.187166  9093 layer_factory.hpp:77] Creating layer fire3/concat
I1014 22:27:13.187176  9093 net.cpp:84] Creating Layer fire3/concat
I1014 22:27:13.187181  9093 net.cpp:406] fire3/concat <- fire3/expand1x1
I1014 22:27:13.187188  9093 net.cpp:406] fire3/concat <- fire3/expand3x3
I1014 22:27:13.187201  9093 net.cpp:380] fire3/concat -> fire3/concat
I1014 22:27:13.187248  9093 net.cpp:122] Setting up fire3/concat
I1014 22:27:13.187258  9093 net.cpp:129] Top shape: 32 128 55 55 (12390400)
I1014 22:27:13.187263  9093 net.cpp:137] Memory required for data: 706690560
I1014 22:27:13.187268  9093 layer_factory.hpp:77] Creating layer fire4/squeeze1x1
I1014 22:27:13.187283  9093 net.cpp:84] Creating Layer fire4/squeeze1x1
I1014 22:27:13.187290  9093 net.cpp:406] fire4/squeeze1x1 <- fire3/concat
I1014 22:27:13.187301  9093 net.cpp:380] fire4/squeeze1x1 -> fire4/squeeze1x1
I1014 22:27:13.189625  9093 net.cpp:122] Setting up fire4/squeeze1x1
I1014 22:27:13.189647  9093 net.cpp:129] Top shape: 32 32 55 55 (3097600)
I1014 22:27:13.189653  9093 net.cpp:137] Memory required for data: 719080960
I1014 22:27:13.189663  9093 layer_factory.hpp:77] Creating layer fire4/relu_squeeze1x1
I1014 22:27:13.189678  9093 net.cpp:84] Creating Layer fire4/relu_squeeze1x1
I1014 22:27:13.189685  9093 net.cpp:406] fire4/relu_squeeze1x1 <- fire4/squeeze1x1
I1014 22:27:13.189718  9093 net.cpp:367] fire4/relu_squeeze1x1 -> fire4/squeeze1x1 (in-place)
I1014 22:27:13.190150  9093 net.cpp:122] Setting up fire4/relu_squeeze1x1
I1014 22:27:13.190165  9093 net.cpp:129] Top shape: 32 32 55 55 (3097600)
I1014 22:27:13.190178  9093 net.cpp:137] Memory required for data: 731471360
I1014 22:27:13.190183  9093 layer_factory.hpp:77] Creating layer fire4/squeeze1x1_fire4/relu_squeeze1x1_0_split
I1014 22:27:13.190197  9093 net.cpp:84] Creating Layer fire4/squeeze1x1_fire4/relu_squeeze1x1_0_split
I1014 22:27:13.190206  9093 net.cpp:406] fire4/squeeze1x1_fire4/relu_squeeze1x1_0_split <- fire4/squeeze1x1
I1014 22:27:13.190213  9093 net.cpp:380] fire4/squeeze1x1_fire4/relu_squeeze1x1_0_split -> fire4/squeeze1x1_fire4/relu_squeeze1x1_0_split_0
I1014 22:27:13.190229  9093 net.cpp:380] fire4/squeeze1x1_fire4/relu_squeeze1x1_0_split -> fire4/squeeze1x1_fire4/relu_squeeze1x1_0_split_1
I1014 22:27:13.190311  9093 net.cpp:122] Setting up fire4/squeeze1x1_fire4/relu_squeeze1x1_0_split
I1014 22:27:13.190325  9093 net.cpp:129] Top shape: 32 32 55 55 (3097600)
I1014 22:27:13.190332  9093 net.cpp:129] Top shape: 32 32 55 55 (3097600)
I1014 22:27:13.190336  9093 net.cpp:137] Memory required for data: 756252160
I1014 22:27:13.190341  9093 layer_factory.hpp:77] Creating layer fire4/expand1x1
I1014 22:27:13.190354  9093 net.cpp:84] Creating Layer fire4/expand1x1
I1014 22:27:13.190361  9093 net.cpp:406] fire4/expand1x1 <- fire4/squeeze1x1_fire4/relu_squeeze1x1_0_split_0
I1014 22:27:13.190371  9093 net.cpp:380] fire4/expand1x1 -> fire4/expand1x1
I1014 22:27:13.192680  9093 net.cpp:122] Setting up fire4/expand1x1
I1014 22:27:13.192703  9093 net.cpp:129] Top shape: 32 128 55 55 (12390400)
I1014 22:27:13.192708  9093 net.cpp:137] Memory required for data: 805813760
I1014 22:27:13.192725  9093 layer_factory.hpp:77] Creating layer fire4/relu_expand1x1
I1014 22:27:13.192739  9093 net.cpp:84] Creating Layer fire4/relu_expand1x1
I1014 22:27:13.192749  9093 net.cpp:406] fire4/relu_expand1x1 <- fire4/expand1x1
I1014 22:27:13.192756  9093 net.cpp:367] fire4/relu_expand1x1 -> fire4/expand1x1 (in-place)
I1014 22:27:13.193183  9093 net.cpp:122] Setting up fire4/relu_expand1x1
I1014 22:27:13.193198  9093 net.cpp:129] Top shape: 32 128 55 55 (12390400)
I1014 22:27:13.193205  9093 net.cpp:137] Memory required for data: 855375360
I1014 22:27:13.193210  9093 layer_factory.hpp:77] Creating layer fire4/expand3x3
I1014 22:27:13.193225  9093 net.cpp:84] Creating Layer fire4/expand3x3
I1014 22:27:13.193233  9093 net.cpp:406] fire4/expand3x3 <- fire4/squeeze1x1_fire4/relu_squeeze1x1_0_split_1
I1014 22:27:13.193245  9093 net.cpp:380] fire4/expand3x3 -> fire4/expand3x3
I1014 22:27:13.197525  9093 net.cpp:122] Setting up fire4/expand3x3
I1014 22:27:13.197547  9093 net.cpp:129] Top shape: 32 128 55 55 (12390400)
I1014 22:27:13.197566  9093 net.cpp:137] Memory required for data: 904936960
I1014 22:27:13.197580  9093 layer_factory.hpp:77] Creating layer fire4/relu_expand3x3
I1014 22:27:13.197594  9093 net.cpp:84] Creating Layer fire4/relu_expand3x3
I1014 22:27:13.197602  9093 net.cpp:406] fire4/relu_expand3x3 <- fire4/expand3x3
I1014 22:27:13.197610  9093 net.cpp:367] fire4/relu_expand3x3 -> fire4/expand3x3 (in-place)
I1014 22:27:13.198550  9093 net.cpp:122] Setting up fire4/relu_expand3x3
I1014 22:27:13.198570  9093 net.cpp:129] Top shape: 32 128 55 55 (12390400)
I1014 22:27:13.198576  9093 net.cpp:137] Memory required for data: 954498560
I1014 22:27:13.198581  9093 layer_factory.hpp:77] Creating layer fire4/concat
I1014 22:27:13.198590  9093 net.cpp:84] Creating Layer fire4/concat
I1014 22:27:13.198597  9093 net.cpp:406] fire4/concat <- fire4/expand1x1
I1014 22:27:13.198604  9093 net.cpp:406] fire4/concat <- fire4/expand3x3
I1014 22:27:13.198613  9093 net.cpp:380] fire4/concat -> fire4/concat
I1014 22:27:13.198665  9093 net.cpp:122] Setting up fire4/concat
I1014 22:27:13.198675  9093 net.cpp:129] Top shape: 32 256 55 55 (24780800)
I1014 22:27:13.198678  9093 net.cpp:137] Memory required for data: 1053621760
I1014 22:27:13.198683  9093 layer_factory.hpp:77] Creating layer pool4
I1014 22:27:13.198712  9093 net.cpp:84] Creating Layer pool4
I1014 22:27:13.198720  9093 net.cpp:406] pool4 <- fire4/concat
I1014 22:27:13.198727  9093 net.cpp:380] pool4 -> pool4
I1014 22:27:13.198797  9093 net.cpp:122] Setting up pool4
I1014 22:27:13.198807  9093 net.cpp:129] Top shape: 32 256 27 27 (5971968)
I1014 22:27:13.198812  9093 net.cpp:137] Memory required for data: 1077509632
I1014 22:27:13.198815  9093 layer_factory.hpp:77] Creating layer fire5/squeeze1x1
I1014 22:27:13.198827  9093 net.cpp:84] Creating Layer fire5/squeeze1x1
I1014 22:27:13.198834  9093 net.cpp:406] fire5/squeeze1x1 <- pool4
I1014 22:27:13.198843  9093 net.cpp:380] fire5/squeeze1x1 -> fire5/squeeze1x1
I1014 22:27:13.201102  9093 net.cpp:122] Setting up fire5/squeeze1x1
I1014 22:27:13.201124  9093 net.cpp:129] Top shape: 32 32 27 27 (746496)
I1014 22:27:13.201133  9093 net.cpp:137] Memory required for data: 1080495616
I1014 22:27:13.201144  9093 layer_factory.hpp:77] Creating layer fire5/relu_squeeze1x1
I1014 22:27:13.201155  9093 net.cpp:84] Creating Layer fire5/relu_squeeze1x1
I1014 22:27:13.201164  9093 net.cpp:406] fire5/relu_squeeze1x1 <- fire5/squeeze1x1
I1014 22:27:13.201176  9093 net.cpp:367] fire5/relu_squeeze1x1 -> fire5/squeeze1x1 (in-place)
I1014 22:27:13.201584  9093 net.cpp:122] Setting up fire5/relu_squeeze1x1
I1014 22:27:13.201601  9093 net.cpp:129] Top shape: 32 32 27 27 (746496)
I1014 22:27:13.201606  9093 net.cpp:137] Memory required for data: 1083481600
I1014 22:27:13.201611  9093 layer_factory.hpp:77] Creating layer fire5/squeeze1x1_fire5/relu_squeeze1x1_0_split
I1014 22:27:13.201620  9093 net.cpp:84] Creating Layer fire5/squeeze1x1_fire5/relu_squeeze1x1_0_split
I1014 22:27:13.201624  9093 net.cpp:406] fire5/squeeze1x1_fire5/relu_squeeze1x1_0_split <- fire5/squeeze1x1
I1014 22:27:13.201632  9093 net.cpp:380] fire5/squeeze1x1_fire5/relu_squeeze1x1_0_split -> fire5/squeeze1x1_fire5/relu_squeeze1x1_0_split_0
I1014 22:27:13.201645  9093 net.cpp:380] fire5/squeeze1x1_fire5/relu_squeeze1x1_0_split -> fire5/squeeze1x1_fire5/relu_squeeze1x1_0_split_1
I1014 22:27:13.201719  9093 net.cpp:122] Setting up fire5/squeeze1x1_fire5/relu_squeeze1x1_0_split
I1014 22:27:13.201727  9093 net.cpp:129] Top shape: 32 32 27 27 (746496)
I1014 22:27:13.201733  9093 net.cpp:129] Top shape: 32 32 27 27 (746496)
I1014 22:27:13.201738  9093 net.cpp:137] Memory required for data: 1089453568
I1014 22:27:13.201741  9093 layer_factory.hpp:77] Creating layer fire5/expand1x1
I1014 22:27:13.201764  9093 net.cpp:84] Creating Layer fire5/expand1x1
I1014 22:27:13.201771  9093 net.cpp:406] fire5/expand1x1 <- fire5/squeeze1x1_fire5/relu_squeeze1x1_0_split_0
I1014 22:27:13.201781  9093 net.cpp:380] fire5/expand1x1 -> fire5/expand1x1
I1014 22:27:13.204040  9093 net.cpp:122] Setting up fire5/expand1x1
I1014 22:27:13.204059  9093 net.cpp:129] Top shape: 32 128 27 27 (2985984)
I1014 22:27:13.204064  9093 net.cpp:137] Memory required for data: 1101397504
I1014 22:27:13.204074  9093 layer_factory.hpp:77] Creating layer fire5/relu_expand1x1
I1014 22:27:13.204083  9093 net.cpp:84] Creating Layer fire5/relu_expand1x1
I1014 22:27:13.204087  9093 net.cpp:406] fire5/relu_expand1x1 <- fire5/expand1x1
I1014 22:27:13.204097  9093 net.cpp:367] fire5/relu_expand1x1 -> fire5/expand1x1 (in-place)
I1014 22:27:13.204506  9093 net.cpp:122] Setting up fire5/relu_expand1x1
I1014 22:27:13.204519  9093 net.cpp:129] Top shape: 32 128 27 27 (2985984)
I1014 22:27:13.204524  9093 net.cpp:137] Memory required for data: 1113341440
I1014 22:27:13.204530  9093 layer_factory.hpp:77] Creating layer fire5/expand3x3
I1014 22:27:13.204545  9093 net.cpp:84] Creating Layer fire5/expand3x3
I1014 22:27:13.204550  9093 net.cpp:406] fire5/expand3x3 <- fire5/squeeze1x1_fire5/relu_squeeze1x1_0_split_1
I1014 22:27:13.204560  9093 net.cpp:380] fire5/expand3x3 -> fire5/expand3x3
I1014 22:27:13.207589  9093 net.cpp:122] Setting up fire5/expand3x3
I1014 22:27:13.207613  9093 net.cpp:129] Top shape: 32 128 27 27 (2985984)
I1014 22:27:13.207617  9093 net.cpp:137] Memory required for data: 1125285376
I1014 22:27:13.207645  9093 layer_factory.hpp:77] Creating layer fire5/relu_expand3x3
I1014 22:27:13.207657  9093 net.cpp:84] Creating Layer fire5/relu_expand3x3
I1014 22:27:13.207665  9093 net.cpp:406] fire5/relu_expand3x3 <- fire5/expand3x3
I1014 22:27:13.207672  9093 net.cpp:367] fire5/relu_expand3x3 -> fire5/expand3x3 (in-place)
I1014 22:27:13.208582  9093 net.cpp:122] Setting up fire5/relu_expand3x3
I1014 22:27:13.208601  9093 net.cpp:129] Top shape: 32 128 27 27 (2985984)
I1014 22:27:13.208607  9093 net.cpp:137] Memory required for data: 1137229312
I1014 22:27:13.208612  9093 layer_factory.hpp:77] Creating layer fire5/concat
I1014 22:27:13.208621  9093 net.cpp:84] Creating Layer fire5/concat
I1014 22:27:13.208624  9093 net.cpp:406] fire5/concat <- fire5/expand1x1
I1014 22:27:13.208633  9093 net.cpp:406] fire5/concat <- fire5/expand3x3
I1014 22:27:13.208643  9093 net.cpp:380] fire5/concat -> fire5/concat
I1014 22:27:13.208693  9093 net.cpp:122] Setting up fire5/concat
I1014 22:27:13.208703  9093 net.cpp:129] Top shape: 32 256 27 27 (5971968)
I1014 22:27:13.208708  9093 net.cpp:137] Memory required for data: 1161117184
I1014 22:27:13.208714  9093 layer_factory.hpp:77] Creating layer fire6/squeeze1x1
I1014 22:27:13.208729  9093 net.cpp:84] Creating Layer fire6/squeeze1x1
I1014 22:27:13.208735  9093 net.cpp:406] fire6/squeeze1x1 <- fire5/concat
I1014 22:27:13.208745  9093 net.cpp:380] fire6/squeeze1x1 -> fire6/squeeze1x1
I1014 22:27:13.211037  9093 net.cpp:122] Setting up fire6/squeeze1x1
I1014 22:27:13.211056  9093 net.cpp:129] Top shape: 32 48 27 27 (1119744)
I1014 22:27:13.211061  9093 net.cpp:137] Memory required for data: 1165596160
I1014 22:27:13.211071  9093 layer_factory.hpp:77] Creating layer fire6/relu_squeeze1x1
I1014 22:27:13.211081  9093 net.cpp:84] Creating Layer fire6/relu_squeeze1x1
I1014 22:27:13.211086  9093 net.cpp:406] fire6/relu_squeeze1x1 <- fire6/squeeze1x1
I1014 22:27:13.211094  9093 net.cpp:367] fire6/relu_squeeze1x1 -> fire6/squeeze1x1 (in-place)
I1014 22:27:13.211472  9093 net.cpp:122] Setting up fire6/relu_squeeze1x1
I1014 22:27:13.211485  9093 net.cpp:129] Top shape: 32 48 27 27 (1119744)
I1014 22:27:13.211489  9093 net.cpp:137] Memory required for data: 1170075136
I1014 22:27:13.211493  9093 layer_factory.hpp:77] Creating layer fire6/squeeze1x1_fire6/relu_squeeze1x1_0_split
I1014 22:27:13.211504  9093 net.cpp:84] Creating Layer fire6/squeeze1x1_fire6/relu_squeeze1x1_0_split
I1014 22:27:13.211508  9093 net.cpp:406] fire6/squeeze1x1_fire6/relu_squeeze1x1_0_split <- fire6/squeeze1x1
I1014 22:27:13.211519  9093 net.cpp:380] fire6/squeeze1x1_fire6/relu_squeeze1x1_0_split -> fire6/squeeze1x1_fire6/relu_squeeze1x1_0_split_0
I1014 22:27:13.211527  9093 net.cpp:380] fire6/squeeze1x1_fire6/relu_squeeze1x1_0_split -> fire6/squeeze1x1_fire6/relu_squeeze1x1_0_split_1
I1014 22:27:13.211596  9093 net.cpp:122] Setting up fire6/squeeze1x1_fire6/relu_squeeze1x1_0_split
I1014 22:27:13.211606  9093 net.cpp:129] Top shape: 32 48 27 27 (1119744)
I1014 22:27:13.211612  9093 net.cpp:129] Top shape: 32 48 27 27 (1119744)
I1014 22:27:13.211616  9093 net.cpp:137] Memory required for data: 1179033088
I1014 22:27:13.211621  9093 layer_factory.hpp:77] Creating layer fire6/expand1x1
I1014 22:27:13.211630  9093 net.cpp:84] Creating Layer fire6/expand1x1
I1014 22:27:13.211635  9093 net.cpp:406] fire6/expand1x1 <- fire6/squeeze1x1_fire6/relu_squeeze1x1_0_split_0
I1014 22:27:13.211645  9093 net.cpp:380] fire6/expand1x1 -> fire6/expand1x1
I1014 22:27:13.213801  9093 net.cpp:122] Setting up fire6/expand1x1
I1014 22:27:13.213821  9093 net.cpp:129] Top shape: 32 192 27 27 (4478976)
I1014 22:27:13.213825  9093 net.cpp:137] Memory required for data: 1196948992
I1014 22:27:13.213835  9093 layer_factory.hpp:77] Creating layer fire6/relu_expand1x1
I1014 22:27:13.213845  9093 net.cpp:84] Creating Layer fire6/relu_expand1x1
I1014 22:27:13.213852  9093 net.cpp:406] fire6/relu_expand1x1 <- fire6/expand1x1
I1014 22:27:13.213860  9093 net.cpp:367] fire6/relu_expand1x1 -> fire6/expand1x1 (in-place)
I1014 22:27:13.214273  9093 net.cpp:122] Setting up fire6/relu_expand1x1
I1014 22:27:13.214305  9093 net.cpp:129] Top shape: 32 192 27 27 (4478976)
I1014 22:27:13.214310  9093 net.cpp:137] Memory required for data: 1214864896
I1014 22:27:13.214313  9093 layer_factory.hpp:77] Creating layer fire6/expand3x3
I1014 22:27:13.214329  9093 net.cpp:84] Creating Layer fire6/expand3x3
I1014 22:27:13.214335  9093 net.cpp:406] fire6/expand3x3 <- fire6/squeeze1x1_fire6/relu_squeeze1x1_0_split_1
I1014 22:27:13.214344  9093 net.cpp:380] fire6/expand3x3 -> fire6/expand3x3
I1014 22:27:13.219048  9093 net.cpp:122] Setting up fire6/expand3x3
I1014 22:27:13.219069  9093 net.cpp:129] Top shape: 32 192 27 27 (4478976)
I1014 22:27:13.219074  9093 net.cpp:137] Memory required for data: 1232780800
I1014 22:27:13.219084  9093 layer_factory.hpp:77] Creating layer fire6/relu_expand3x3
I1014 22:27:13.219090  9093 net.cpp:84] Creating Layer fire6/relu_expand3x3
I1014 22:27:13.219097  9093 net.cpp:406] fire6/relu_expand3x3 <- fire6/expand3x3
I1014 22:27:13.219107  9093 net.cpp:367] fire6/relu_expand3x3 -> fire6/expand3x3 (in-place)
I1014 22:27:13.219924  9093 net.cpp:122] Setting up fire6/relu_expand3x3
I1014 22:27:13.219944  9093 net.cpp:129] Top shape: 32 192 27 27 (4478976)
I1014 22:27:13.219949  9093 net.cpp:137] Memory required for data: 1250696704
I1014 22:27:13.219954  9093 layer_factory.hpp:77] Creating layer fire6/concat
I1014 22:27:13.219962  9093 net.cpp:84] Creating Layer fire6/concat
I1014 22:27:13.219966  9093 net.cpp:406] fire6/concat <- fire6/expand1x1
I1014 22:27:13.219972  9093 net.cpp:406] fire6/concat <- fire6/expand3x3
I1014 22:27:13.219983  9093 net.cpp:380] fire6/concat -> fire6/concat
I1014 22:27:13.220028  9093 net.cpp:122] Setting up fire6/concat
I1014 22:27:13.220037  9093 net.cpp:129] Top shape: 32 384 27 27 (8957952)
I1014 22:27:13.220041  9093 net.cpp:137] Memory required for data: 1286528512
I1014 22:27:13.220048  9093 layer_factory.hpp:77] Creating layer fire7/squeeze1x1
I1014 22:27:13.220062  9093 net.cpp:84] Creating Layer fire7/squeeze1x1
I1014 22:27:13.220068  9093 net.cpp:406] fire7/squeeze1x1 <- fire6/concat
I1014 22:27:13.220079  9093 net.cpp:380] fire7/squeeze1x1 -> fire7/squeeze1x1
I1014 22:27:13.222322  9093 net.cpp:122] Setting up fire7/squeeze1x1
I1014 22:27:13.222342  9093 net.cpp:129] Top shape: 32 48 27 27 (1119744)
I1014 22:27:13.222345  9093 net.cpp:137] Memory required for data: 1291007488
I1014 22:27:13.222362  9093 layer_factory.hpp:77] Creating layer fire7/relu_squeeze1x1
I1014 22:27:13.222378  9093 net.cpp:84] Creating Layer fire7/relu_squeeze1x1
I1014 22:27:13.222381  9093 net.cpp:406] fire7/relu_squeeze1x1 <- fire7/squeeze1x1
I1014 22:27:13.222388  9093 net.cpp:367] fire7/relu_squeeze1x1 -> fire7/squeeze1x1 (in-place)
I1014 22:27:13.222780  9093 net.cpp:122] Setting up fire7/relu_squeeze1x1
I1014 22:27:13.222793  9093 net.cpp:129] Top shape: 32 48 27 27 (1119744)
I1014 22:27:13.222797  9093 net.cpp:137] Memory required for data: 1295486464
I1014 22:27:13.222801  9093 layer_factory.hpp:77] Creating layer fire7/squeeze1x1_fire7/relu_squeeze1x1_0_split
I1014 22:27:13.222811  9093 net.cpp:84] Creating Layer fire7/squeeze1x1_fire7/relu_squeeze1x1_0_split
I1014 22:27:13.222815  9093 net.cpp:406] fire7/squeeze1x1_fire7/relu_squeeze1x1_0_split <- fire7/squeeze1x1
I1014 22:27:13.222822  9093 net.cpp:380] fire7/squeeze1x1_fire7/relu_squeeze1x1_0_split -> fire7/squeeze1x1_fire7/relu_squeeze1x1_0_split_0
I1014 22:27:13.222834  9093 net.cpp:380] fire7/squeeze1x1_fire7/relu_squeeze1x1_0_split -> fire7/squeeze1x1_fire7/relu_squeeze1x1_0_split_1
I1014 22:27:13.222898  9093 net.cpp:122] Setting up fire7/squeeze1x1_fire7/relu_squeeze1x1_0_split
I1014 22:27:13.222909  9093 net.cpp:129] Top shape: 32 48 27 27 (1119744)
I1014 22:27:13.222914  9093 net.cpp:129] Top shape: 32 48 27 27 (1119744)
I1014 22:27:13.222918  9093 net.cpp:137] Memory required for data: 1304444416
I1014 22:27:13.222921  9093 layer_factory.hpp:77] Creating layer fire7/expand1x1
I1014 22:27:13.222934  9093 net.cpp:84] Creating Layer fire7/expand1x1
I1014 22:27:13.222941  9093 net.cpp:406] fire7/expand1x1 <- fire7/squeeze1x1_fire7/relu_squeeze1x1_0_split_0
I1014 22:27:13.222971  9093 net.cpp:380] fire7/expand1x1 -> fire7/expand1x1
I1014 22:27:13.225013  9093 net.cpp:122] Setting up fire7/expand1x1
I1014 22:27:13.225031  9093 net.cpp:129] Top shape: 32 192 27 27 (4478976)
I1014 22:27:13.225035  9093 net.cpp:137] Memory required for data: 1322360320
I1014 22:27:13.225044  9093 layer_factory.hpp:77] Creating layer fire7/relu_expand1x1
I1014 22:27:13.225051  9093 net.cpp:84] Creating Layer fire7/relu_expand1x1
I1014 22:27:13.225059  9093 net.cpp:406] fire7/relu_expand1x1 <- fire7/expand1x1
I1014 22:27:13.225067  9093 net.cpp:367] fire7/relu_expand1x1 -> fire7/expand1x1 (in-place)
I1014 22:27:13.225425  9093 net.cpp:122] Setting up fire7/relu_expand1x1
I1014 22:27:13.225437  9093 net.cpp:129] Top shape: 32 192 27 27 (4478976)
I1014 22:27:13.225441  9093 net.cpp:137] Memory required for data: 1340276224
I1014 22:27:13.225445  9093 layer_factory.hpp:77] Creating layer fire7/expand3x3
I1014 22:27:13.225457  9093 net.cpp:84] Creating Layer fire7/expand3x3
I1014 22:27:13.225462  9093 net.cpp:406] fire7/expand3x3 <- fire7/squeeze1x1_fire7/relu_squeeze1x1_0_split_1
I1014 22:27:13.225471  9093 net.cpp:380] fire7/expand3x3 -> fire7/expand3x3
I1014 22:27:13.228559  9093 net.cpp:122] Setting up fire7/expand3x3
I1014 22:27:13.228577  9093 net.cpp:129] Top shape: 32 192 27 27 (4478976)
I1014 22:27:13.228581  9093 net.cpp:137] Memory required for data: 1358192128
I1014 22:27:13.228591  9093 layer_factory.hpp:77] Creating layer fire7/relu_expand3x3
I1014 22:27:13.228598  9093 net.cpp:84] Creating Layer fire7/relu_expand3x3
I1014 22:27:13.228602  9093 net.cpp:406] fire7/relu_expand3x3 <- fire7/expand3x3
I1014 22:27:13.228612  9093 net.cpp:367] fire7/relu_expand3x3 -> fire7/expand3x3 (in-place)
I1014 22:27:13.228993  9093 net.cpp:122] Setting up fire7/relu_expand3x3
I1014 22:27:13.229008  9093 net.cpp:129] Top shape: 32 192 27 27 (4478976)
I1014 22:27:13.229012  9093 net.cpp:137] Memory required for data: 1376108032
I1014 22:27:13.229018  9093 layer_factory.hpp:77] Creating layer fire7/concat
I1014 22:27:13.229027  9093 net.cpp:84] Creating Layer fire7/concat
I1014 22:27:13.229030  9093 net.cpp:406] fire7/concat <- fire7/expand1x1
I1014 22:27:13.229035  9093 net.cpp:406] fire7/concat <- fire7/expand3x3
I1014 22:27:13.229041  9093 net.cpp:380] fire7/concat -> fire7/concat
I1014 22:27:13.229086  9093 net.cpp:122] Setting up fire7/concat
I1014 22:27:13.229097  9093 net.cpp:129] Top shape: 32 384 27 27 (8957952)
I1014 22:27:13.229100  9093 net.cpp:137] Memory required for data: 1411939840
I1014 22:27:13.229104  9093 layer_factory.hpp:77] Creating layer fire8/squeeze1x1
I1014 22:27:13.229117  9093 net.cpp:84] Creating Layer fire8/squeeze1x1
I1014 22:27:13.229123  9093 net.cpp:406] fire8/squeeze1x1 <- fire7/concat
I1014 22:27:13.229130  9093 net.cpp:380] fire8/squeeze1x1 -> fire8/squeeze1x1
I1014 22:27:13.231302  9093 net.cpp:122] Setting up fire8/squeeze1x1
I1014 22:27:13.231323  9093 net.cpp:129] Top shape: 32 64 27 27 (1492992)
I1014 22:27:13.231325  9093 net.cpp:137] Memory required for data: 1417911808
I1014 22:27:13.231334  9093 layer_factory.hpp:77] Creating layer fire8/relu_squeeze1x1
I1014 22:27:13.231341  9093 net.cpp:84] Creating Layer fire8/relu_squeeze1x1
I1014 22:27:13.231348  9093 net.cpp:406] fire8/relu_squeeze1x1 <- fire8/squeeze1x1
I1014 22:27:13.231356  9093 net.cpp:367] fire8/relu_squeeze1x1 -> fire8/squeeze1x1 (in-place)
I1014 22:27:13.232138  9093 net.cpp:122] Setting up fire8/relu_squeeze1x1
I1014 22:27:13.232157  9093 net.cpp:129] Top shape: 32 64 27 27 (1492992)
I1014 22:27:13.232162  9093 net.cpp:137] Memory required for data: 1423883776
I1014 22:27:13.232167  9093 layer_factory.hpp:77] Creating layer fire8/squeeze1x1_fire8/relu_squeeze1x1_0_split
I1014 22:27:13.232173  9093 net.cpp:84] Creating Layer fire8/squeeze1x1_fire8/relu_squeeze1x1_0_split
I1014 22:27:13.232177  9093 net.cpp:406] fire8/squeeze1x1_fire8/relu_squeeze1x1_0_split <- fire8/squeeze1x1
I1014 22:27:13.232190  9093 net.cpp:380] fire8/squeeze1x1_fire8/relu_squeeze1x1_0_split -> fire8/squeeze1x1_fire8/relu_squeeze1x1_0_split_0
I1014 22:27:13.232218  9093 net.cpp:380] fire8/squeeze1x1_fire8/relu_squeeze1x1_0_split -> fire8/squeeze1x1_fire8/relu_squeeze1x1_0_split_1
I1014 22:27:13.232290  9093 net.cpp:122] Setting up fire8/squeeze1x1_fire8/relu_squeeze1x1_0_split
I1014 22:27:13.232300  9093 net.cpp:129] Top shape: 32 64 27 27 (1492992)
I1014 22:27:13.232306  9093 net.cpp:129] Top shape: 32 64 27 27 (1492992)
I1014 22:27:13.232309  9093 net.cpp:137] Memory required for data: 1435827712
I1014 22:27:13.232314  9093 layer_factory.hpp:77] Creating layer fire8/expand1x1
I1014 22:27:13.232328  9093 net.cpp:84] Creating Layer fire8/expand1x1
I1014 22:27:13.232336  9093 net.cpp:406] fire8/expand1x1 <- fire8/squeeze1x1_fire8/relu_squeeze1x1_0_split_0
I1014 22:27:13.232342  9093 net.cpp:380] fire8/expand1x1 -> fire8/expand1x1
I1014 22:27:13.234782  9093 net.cpp:122] Setting up fire8/expand1x1
I1014 22:27:13.234799  9093 net.cpp:129] Top shape: 32 256 27 27 (5971968)
I1014 22:27:13.234804  9093 net.cpp:137] Memory required for data: 1459715584
I1014 22:27:13.234812  9093 layer_factory.hpp:77] Creating layer fire8/relu_expand1x1
I1014 22:27:13.234819  9093 net.cpp:84] Creating Layer fire8/relu_expand1x1
I1014 22:27:13.234823  9093 net.cpp:406] fire8/relu_expand1x1 <- fire8/expand1x1
I1014 22:27:13.234833  9093 net.cpp:367] fire8/relu_expand1x1 -> fire8/expand1x1 (in-place)
I1014 22:27:13.235183  9093 net.cpp:122] Setting up fire8/relu_expand1x1
I1014 22:27:13.235195  9093 net.cpp:129] Top shape: 32 256 27 27 (5971968)
I1014 22:27:13.235198  9093 net.cpp:137] Memory required for data: 1483603456
I1014 22:27:13.235203  9093 layer_factory.hpp:77] Creating layer fire8/expand3x3
I1014 22:27:13.235215  9093 net.cpp:84] Creating Layer fire8/expand3x3
I1014 22:27:13.235220  9093 net.cpp:406] fire8/expand3x3 <- fire8/squeeze1x1_fire8/relu_squeeze1x1_0_split_1
I1014 22:27:13.235227  9093 net.cpp:380] fire8/expand3x3 -> fire8/expand3x3
I1014 22:27:13.238700  9093 net.cpp:122] Setting up fire8/expand3x3
I1014 22:27:13.238721  9093 net.cpp:129] Top shape: 32 256 27 27 (5971968)
I1014 22:27:13.238726  9093 net.cpp:137] Memory required for data: 1507491328
I1014 22:27:13.238734  9093 layer_factory.hpp:77] Creating layer fire8/relu_expand3x3
I1014 22:27:13.238742  9093 net.cpp:84] Creating Layer fire8/relu_expand3x3
I1014 22:27:13.238747  9093 net.cpp:406] fire8/relu_expand3x3 <- fire8/expand3x3
I1014 22:27:13.238754  9093 net.cpp:367] fire8/relu_expand3x3 -> fire8/expand3x3 (in-place)
I1014 22:27:13.239104  9093 net.cpp:122] Setting up fire8/relu_expand3x3
I1014 22:27:13.239118  9093 net.cpp:129] Top shape: 32 256 27 27 (5971968)
I1014 22:27:13.239121  9093 net.cpp:137] Memory required for data: 1531379200
I1014 22:27:13.239127  9093 layer_factory.hpp:77] Creating layer fire8/concat
I1014 22:27:13.239135  9093 net.cpp:84] Creating Layer fire8/concat
I1014 22:27:13.239138  9093 net.cpp:406] fire8/concat <- fire8/expand1x1
I1014 22:27:13.239143  9093 net.cpp:406] fire8/concat <- fire8/expand3x3
I1014 22:27:13.239153  9093 net.cpp:380] fire8/concat -> fire8/concat
I1014 22:27:13.239192  9093 net.cpp:122] Setting up fire8/concat
I1014 22:27:13.239202  9093 net.cpp:129] Top shape: 32 512 27 27 (11943936)
I1014 22:27:13.239204  9093 net.cpp:137] Memory required for data: 1579154944
I1014 22:27:13.239208  9093 layer_factory.hpp:77] Creating layer pool8
I1014 22:27:13.239217  9093 net.cpp:84] Creating Layer pool8
I1014 22:27:13.239222  9093 net.cpp:406] pool8 <- fire8/concat
I1014 22:27:13.239228  9093 net.cpp:380] pool8 -> pool8
I1014 22:27:13.239285  9093 net.cpp:122] Setting up pool8
I1014 22:27:13.239292  9093 net.cpp:129] Top shape: 32 512 13 13 (2768896)
I1014 22:27:13.239296  9093 net.cpp:137] Memory required for data: 1590230528
I1014 22:27:13.239300  9093 layer_factory.hpp:77] Creating layer fire9/squeeze1x1
I1014 22:27:13.239310  9093 net.cpp:84] Creating Layer fire9/squeeze1x1
I1014 22:27:13.239315  9093 net.cpp:406] fire9/squeeze1x1 <- pool8
I1014 22:27:13.239323  9093 net.cpp:380] fire9/squeeze1x1 -> fire9/squeeze1x1
I1014 22:27:13.241487  9093 net.cpp:122] Setting up fire9/squeeze1x1
I1014 22:27:13.241503  9093 net.cpp:129] Top shape: 32 64 13 13 (346112)
I1014 22:27:13.241506  9093 net.cpp:137] Memory required for data: 1591614976
I1014 22:27:13.241515  9093 layer_factory.hpp:77] Creating layer fire9/relu_squeeze1x1
I1014 22:27:13.241525  9093 net.cpp:84] Creating Layer fire9/relu_squeeze1x1
I1014 22:27:13.241529  9093 net.cpp:406] fire9/relu_squeeze1x1 <- fire9/squeeze1x1
I1014 22:27:13.241535  9093 net.cpp:367] fire9/relu_squeeze1x1 -> fire9/squeeze1x1 (in-place)
I1014 22:27:13.242336  9093 net.cpp:122] Setting up fire9/relu_squeeze1x1
I1014 22:27:13.242355  9093 net.cpp:129] Top shape: 32 64 13 13 (346112)
I1014 22:27:13.242359  9093 net.cpp:137] Memory required for data: 1592999424
I1014 22:27:13.242363  9093 layer_factory.hpp:77] Creating layer fire9/squeeze1x1_fire9/relu_squeeze1x1_0_split
I1014 22:27:13.242394  9093 net.cpp:84] Creating Layer fire9/squeeze1x1_fire9/relu_squeeze1x1_0_split
I1014 22:27:13.242410  9093 net.cpp:406] fire9/squeeze1x1_fire9/relu_squeeze1x1_0_split <- fire9/squeeze1x1
I1014 22:27:13.242419  9093 net.cpp:380] fire9/squeeze1x1_fire9/relu_squeeze1x1_0_split -> fire9/squeeze1x1_fire9/relu_squeeze1x1_0_split_0
I1014 22:27:13.242427  9093 net.cpp:380] fire9/squeeze1x1_fire9/relu_squeeze1x1_0_split -> fire9/squeeze1x1_fire9/relu_squeeze1x1_0_split_1
I1014 22:27:13.242497  9093 net.cpp:122] Setting up fire9/squeeze1x1_fire9/relu_squeeze1x1_0_split
I1014 22:27:13.242506  9093 net.cpp:129] Top shape: 32 64 13 13 (346112)
I1014 22:27:13.242511  9093 net.cpp:129] Top shape: 32 64 13 13 (346112)
I1014 22:27:13.242513  9093 net.cpp:137] Memory required for data: 1595768320
I1014 22:27:13.242519  9093 layer_factory.hpp:77] Creating layer fire9/expand1x1
I1014 22:27:13.242528  9093 net.cpp:84] Creating Layer fire9/expand1x1
I1014 22:27:13.242532  9093 net.cpp:406] fire9/expand1x1 <- fire9/squeeze1x1_fire9/relu_squeeze1x1_0_split_0
I1014 22:27:13.242542  9093 net.cpp:380] fire9/expand1x1 -> fire9/expand1x1
I1014 22:27:13.244535  9093 net.cpp:122] Setting up fire9/expand1x1
I1014 22:27:13.244552  9093 net.cpp:129] Top shape: 32 256 13 13 (1384448)
I1014 22:27:13.244556  9093 net.cpp:137] Memory required for data: 1601306112
I1014 22:27:13.244565  9093 layer_factory.hpp:77] Creating layer fire9/relu_expand1x1
I1014 22:27:13.244572  9093 net.cpp:84] Creating Layer fire9/relu_expand1x1
I1014 22:27:13.244576  9093 net.cpp:406] fire9/relu_expand1x1 <- fire9/expand1x1
I1014 22:27:13.244585  9093 net.cpp:367] fire9/relu_expand1x1 -> fire9/expand1x1 (in-place)
I1014 22:27:13.244930  9093 net.cpp:122] Setting up fire9/relu_expand1x1
I1014 22:27:13.244941  9093 net.cpp:129] Top shape: 32 256 13 13 (1384448)
I1014 22:27:13.244945  9093 net.cpp:137] Memory required for data: 1606843904
I1014 22:27:13.244948  9093 layer_factory.hpp:77] Creating layer fire9/expand3x3
I1014 22:27:13.244962  9093 net.cpp:84] Creating Layer fire9/expand3x3
I1014 22:27:13.244967  9093 net.cpp:406] fire9/expand3x3 <- fire9/squeeze1x1_fire9/relu_squeeze1x1_0_split_1
I1014 22:27:13.244976  9093 net.cpp:380] fire9/expand3x3 -> fire9/expand3x3
I1014 22:27:13.248421  9093 net.cpp:122] Setting up fire9/expand3x3
I1014 22:27:13.248441  9093 net.cpp:129] Top shape: 32 256 13 13 (1384448)
I1014 22:27:13.248445  9093 net.cpp:137] Memory required for data: 1612381696
I1014 22:27:13.248453  9093 layer_factory.hpp:77] Creating layer fire9/relu_expand3x3
I1014 22:27:13.248461  9093 net.cpp:84] Creating Layer fire9/relu_expand3x3
I1014 22:27:13.248464  9093 net.cpp:406] fire9/relu_expand3x3 <- fire9/expand3x3
I1014 22:27:13.248471  9093 net.cpp:367] fire9/relu_expand3x3 -> fire9/expand3x3 (in-place)
I1014 22:27:13.248812  9093 net.cpp:122] Setting up fire9/relu_expand3x3
I1014 22:27:13.248824  9093 net.cpp:129] Top shape: 32 256 13 13 (1384448)
I1014 22:27:13.248827  9093 net.cpp:137] Memory required for data: 1617919488
I1014 22:27:13.248831  9093 layer_factory.hpp:77] Creating layer fire9/concat
I1014 22:27:13.248858  9093 net.cpp:84] Creating Layer fire9/concat
I1014 22:27:13.248863  9093 net.cpp:406] fire9/concat <- fire9/expand1x1
I1014 22:27:13.248868  9093 net.cpp:406] fire9/concat <- fire9/expand3x3
I1014 22:27:13.248878  9093 net.cpp:380] fire9/concat -> fire9/concat
I1014 22:27:13.248921  9093 net.cpp:122] Setting up fire9/concat
I1014 22:27:13.248929  9093 net.cpp:129] Top shape: 32 512 13 13 (2768896)
I1014 22:27:13.248932  9093 net.cpp:137] Memory required for data: 1628995072
I1014 22:27:13.248936  9093 layer_factory.hpp:77] Creating layer drop9
I1014 22:27:13.248944  9093 net.cpp:84] Creating Layer drop9
I1014 22:27:13.248946  9093 net.cpp:406] drop9 <- fire9/concat
I1014 22:27:13.248955  9093 net.cpp:367] drop9 -> fire9/concat (in-place)
I1014 22:27:13.248996  9093 net.cpp:122] Setting up drop9
I1014 22:27:13.249002  9093 net.cpp:129] Top shape: 32 512 13 13 (2768896)
I1014 22:27:13.249006  9093 net.cpp:137] Memory required for data: 1640070656
I1014 22:27:13.249008  9093 layer_factory.hpp:77] Creating layer conv10
I1014 22:27:13.249020  9093 net.cpp:84] Creating Layer conv10
I1014 22:27:13.249024  9093 net.cpp:406] conv10 <- fire9/concat
I1014 22:27:13.249032  9093 net.cpp:380] conv10 -> conv10
I1014 22:27:13.268447  9093 net.cpp:122] Setting up conv10
I1014 22:27:13.268492  9093 net.cpp:129] Top shape: 32 1000 15 15 (7200000)
I1014 22:27:13.268498  9093 net.cpp:137] Memory required for data: 1668870656
I1014 22:27:13.268512  9093 layer_factory.hpp:77] Creating layer relu_conv10
I1014 22:27:13.268529  9093 net.cpp:84] Creating Layer relu_conv10
I1014 22:27:13.268537  9093 net.cpp:406] relu_conv10 <- conv10
I1014 22:27:13.268548  9093 net.cpp:367] relu_conv10 -> conv10 (in-place)
I1014 22:27:13.269573  9093 net.cpp:122] Setting up relu_conv10
I1014 22:27:13.269595  9093 net.cpp:129] Top shape: 32 1000 15 15 (7200000)
I1014 22:27:13.269603  9093 net.cpp:137] Memory required for data: 1697670656
I1014 22:27:13.269608  9093 layer_factory.hpp:77] Creating layer pool10
I1014 22:27:13.269619  9093 net.cpp:84] Creating Layer pool10
I1014 22:27:13.269661  9093 net.cpp:406] pool10 <- conv10
I1014 22:27:13.269675  9093 net.cpp:380] pool10 -> pool10
I1014 22:27:13.270259  9093 net.cpp:122] Setting up pool10
I1014 22:27:13.270277  9093 net.cpp:129] Top shape: 32 1000 1 1 (32000)
I1014 22:27:13.270282  9093 net.cpp:137] Memory required for data: 1697798656
I1014 22:27:13.270289  9093 layer_factory.hpp:77] Creating layer loss
I1014 22:27:13.284152  9093 net.cpp:84] Creating Layer loss
I1014 22:27:13.284193  9093 net.cpp:406] loss <- pool10
I1014 22:27:13.284205  9093 net.cpp:406] loss <- label
I1014 22:27:13.284258  9093 net.cpp:380] loss -> loss
I1014 22:27:13.284283  9093 layer_factory.hpp:77] Creating layer loss
…
I1014 22:27:13.287099  9093 net.cpp:294] The NetState phase (1) differed from the phase (0) specified by a rule in layer data
I1014 22:27:13.287147  9093 net.cpp:294] The NetState phase (1) differed from the phase (0) specified by a rule in layer loss
I1014 22:27:13.287756  9093 net.cpp:51] Initializing net from parameters: 
state {
  phase: TEST
}
layer {
  name: "data"
  type: "Data"
  top: "data"
  top: "label"
  include {
    phase: TEST
  }
  transform_param {
    crop_size: 227
    mean_value: 104
    mean_value: 117
    mean_value: 123
  }
  data_param {
    source: "examples/imagenet/ilsvrc12_val_lmdb"
    batch_size: 25
    backend: LMDB
  }
}
layer {
  name: "conv1"
  type: "Convolution"
  bottom: "data"
  top: "conv1"
  convolution_param {
    num_output: 96
    kernel_size: 7
    stride: 2
    weight_filler {
      type: "xavier"
    }
  }
}
layer {
  name: "relu_conv1"
  type: "ReLU"
  bottom: "conv1"
  top: "conv1"
}
layer {
  name: "pool1"
  type: "Pooling"
  bottom: "conv1"
  top: "pool1"
  pooling_param {
    pool: MAX
    kernel_size: 3
    stride: 2
  }
}
layer {
  name: "fire2/squeeze1x1"
  type: "Convolution"
  bottom: "pool1"
  top: "fire2/squeeze1x1"
  convolution_param {
    num_output: 16
    kernel_size: 1
    weight_filler {
      type: "xavier"
    }
  }
}
layer {
  name: "fire2/relu_squeeze1x1"
  type: "ReLU"
  bottom: "fire2/squeeze1x1"
  top: "fire2/squeeze1x1"
}
layer {
  name: "fire2/expand1x1"
  type: "Convolution"
  bottom: "fire2/squeeze1x1"
  top: "fire2/expand1x1"
  convolution_param {
    num_output: 64
    kernel_size: 1
    weight_filler {
      type: "xavier"
    }
  }
}
layer {
  name: "fire2/relu_expand1x1"
  type: "ReLU"
  bottom: "fire2/expand1x1"
  top: "fire2/expand1x1"
}
layer {
  name: "fire2/expand3x3"
  type: "Convolution"
  bottom: "fire2/squeeze1x1"
  top: "fire2/expand3x3"
  convolution_param {
    num_output: 64
    pad: 1
    kernel_size: 3
    weight_filler {
      type: "xavier"
    }
  }
}
layer {
  name: "fire2/relu_expand3x3"
  type: "ReLU"
  bottom: "fire2/expand3x3"
  top: "fire2/expand3x3"
}
layer {
  name: "fire2/concat"
  type: "Concat"
  bottom: "fire2/expand1x1"
  bottom: "fire2/expand3x3"
  top: "fire2/concat"
}
layer {
  name: "fire3/squeeze1x1"
  type: "Convolution"
  bottom: "fire2/concat"
  top: "fire3/squeeze1x1"
  convolution_param {
    num_output: 16
    kernel_size: 1
    weight_filler {
      type: "xavier"
    }
  }
}
layer {
  name: "fire3/relu_squeeze1x1"
  type: "ReLU"
  bottom: "fire3/squeeze1x1"
  top: "fire3/squeeze1x1"
}
layer {
  name: "fire3/expand1x1"
  type: "Convolution"
  bottom: "fire3/squeeze1x1"
  top: "fire3/expand1x1"
  convolution_param {
    num_output: 64
    kernel_size: 1
    weight_filler {
      type: "xavier"
    }
  }
}
layer {
  name: "fire3/relu_expand1x1"
  type: "ReLU"
  bottom: "fire3/expand1x1"
  top: "fire3/expand1x1"
}
layer {
  name: "fire3/expand3x3"
  type: "Convolution"
  bottom: "fire3/squeeze1x1"
  top: "fire3/expand3x3"
  convolution_param {
    num_output: 64
    pad: 1
    kernel_size: 3
    weight_filler {
      type: "xavier"
    }
  }
}
layer {
  name: "fire3/relu_expand3x3"
  type: "ReLU"
  bottom: "fire3/expand3x3"
  top: "fire3/expand3x3"
}
layer {
  name: "fire3/concat"
  type: "Concat"
  bottom: "fire3/expand1x1"
  bottom: "fire3/expand3x3"
  top: "fire3/concat"
}
layer {
  name: "fire4/squeeze1x1"
  type: "Convolution"
  bottom: "fire3/concat"
  top: "fire4/squeeze1x1"
  convolution_param {
    num_output: 32
    kernel_size: 1
    weight_filler {
      type: "xavier"
    }
  }
}
layer {
  name: "fire4/relu_squeeze1x1"
  type: "ReLU"
  bottom: "fire4/squeeze1x1"
  top: "fire4/squeeze1x1"
}
layer {
  name: "fire4/expand1x1"
  type: "Convolution"
  bottom: "fire4/squeeze1x1"
  top: "fire4/expand1x1"
  convolution_param {
    num_output: 128
    kernel_size: 1
    weight_filler {
      type: "xavier"
    }
  }
}
layer {
  name: "fire4/relu_expand1x1"
  type: "ReLU"
  bottom: "fire4/expand1x1"
  top: "fire4/expand1x1"
}
layer {
  name: "fire4/expand3x3"
  type: "Convolution"
  bottom: "fire4/squeeze1x1"
  top: "fire4/expand3x3"
  convolution_param {
    num_output: 128
    pad: 1
    kernel_size: 3
    weight_filler {
      type: "xavier"
    }
  }
}
layer {
  name: "fire4/relu_expand3x3"
  type: "ReLU"
  bottom: "fire4/expand3x3"
  top: "fire4/expand3x3"
}
layer {
  name: "fire4/concat"
  type: "Concat"
  bottom: "fire4/expand1x1"
  bottom: "fire4/expand3x3"
  top: "fire4/concat"
}
layer {
  name: "pool4"
  type: "Pooling"
  bottom: "fire4/concat"
  top: "pool4"
  pooling_param {
    pool: MAX
    kernel_size: 3
    stride: 2
  }
}
layer {
  name: "fire5/squeeze1x1"
  type: "Convolution"
  bottom: "pool4"
  top: "fire5/squeeze1x1"
  convolution_param {
    num_output: 32
    kernel_size: 1
    weight_filler {
      type: "xavier"
    }
  }
}
layer {
  name: "fire5/relu_squeeze1x1"
  type: "ReLU"
  bottom: "fire5/squeeze1x1"
  top: "fire5/squeeze1x1"
}
layer {
  name: "fire5/expand1x1"
  type: "Convolution"
  bottom: "fire5/squeeze1x1"
  top: "fire5/expand1x1"
  convolution_param {
    num_output: 128
    kernel_size: 1
    weight_filler {
      type: "xavier"
    }
  }
}
layer {
  name: "fire5/relu_expand1x1"
  type: "ReLU"
  bottom: "fire5/expand1x1"
  top: "fire5/expand1x1"
}
layer {
  name: "fire5/expand3x3"
  type: "Convolution"
  bottom: "fire5/squeeze1x1"
  top: "fire5/expand3x3"
  convolution_param {
    num_output: 128
    pad: 1
    kernel_size: 3
    weight_filler {
      type: "xavier"
    }
  }
}
layer {
  name: "fire5/relu_expand3x3"
  type: "ReLU"
  bottom: "fire5/expand3x3"
  top: "fire5/expand3x3"
}
layer {
  name: "fire5/concat"
  type: "Concat"
  bottom: "fire5/expand1x1"
  bottom: "fire5/expand3x3"
  top: "fire5/concat"
}
layer {
  name: "fire6/squeeze1x1"
  type: "Convolution"
  bottom: "fire5/concat"
  top: "fire6/squeeze1x1"
  convolution_param {
    num_output: 48
    kernel_size: 1
    weight_filler {
      type: "xavier"
    }
  }
}
layer {
  name: "fire6/relu_squeeze1x1"
  type: "ReLU"
  bottom: "fire6/squeeze1x1"
  top: "fire6/squeeze1x1"
}
layer {
  name: "fire6/expand1x1"
  type: "Convolution"
  bottom: "fire6/squeeze1x1"
  top: "fire6/expand1x1"
  convolution_param {
    num_output: 192
    kernel_size: 1
    weight_filler {
      type: "xavier"
    }
  }
}
layer {
  name: "fire6/relu_expand1x1"
  type: "ReLU"
  bottom: "fire6/expand1x1"
  top: "fire6/expand1x1"
}
layer {
  name: "fire6/expand3x3"
  type: "Convolution"
  bottom: "fire6/squeeze1x1"
  top: "fire6/expand3x3"
  convolution_param {
    num_output: 192
    pad: 1
    kernel_size: 3
    weight_filler {
      type: "xavier"
    }
  }
}
layer {
  name: "fire6/relu_expand3x3"
  type: "ReLU"
  bottom: "fire6/expand3x3"
  top: "fire6/expand3x3"
}
layer {
  name: "fire6/concat"
  type: "Concat"
  bottom: "fire6/expand1x1"
  bottom: "fire6/expand3x3"
  top: "fire6/concat"
}
layer {
  name: "fire7/squeeze1x1"
  type: "Convolution"
  bottom: "fire6/concat"
  top: "fire7/squeeze1x1"
  convolution_param {
    num_output: 48
    kernel_size: 1
    weight_filler {
      type: "xavier"
    }
  }
}
layer {
  name: "fire7/relu_squeeze1x1"
  type: "ReLU"
  bottom: "fire7/squeeze1x1"
  top: "fire7/squeeze1x1"
}
layer {
  name: "fire7/expand1x1"
  type: "Convolution"
  bottom: "fire7/squeeze1x1"
  top: "fire7/expand1x1"
  convolution_param {
    num_output: 192
    kernel_size: 1
    weight_filler {
      type: "xavier"
    }
  }
}
layer {
  name: "fire7/relu_expand1x1"
  type: "ReLU"
  bottom: "fire7/expand1x1"
  top: "fire7/expand1x1"
}
layer {
  name: "fire7/expand3x3"
  type: "Convolution"
  bottom: "fire7/squeeze1x1"
  top: "fire7/expand3x3"
  convolution_param {
    num_output: 192
    pad: 1
    kernel_size: 3
    weight_filler {
      type: "xavier"
    }
  }
}
layer {
  name: "fire7/relu_expand3x3"
  type: "ReLU"
  bottom: "fire7/expand3x3"
  top: "fire7/expand3x3"
}
layer {
  name: "fire7/concat"
  type: "Concat"
  bottom: "fire7/expand1x1"
  bottom: "fire7/expand3x3"
  top: "fire7/concat"
}
layer {
  name: "fire8/squeeze1x1"
  type: "Convolution"
  bottom: "fire7/concat"
  top: "fire8/squeeze1x1"
  convolution_param {
    num_output: 64
    kernel_size: 1
    weight_filler {
      type: "xavier"
    }
  }
}
layer {
  name: "fire8/relu_squeeze1x1"
  type: "ReLU"
  bottom: "fire8/squeeze1x1"
  top: "fire8/squeeze1x1"
}
layer {
  name: "fire8/expand1x1"
  type: "Convolution"
  bottom: "fire8/squeeze1x1"
  top: "fire8/expand1x1"
  convolution_param {
    num_output: 256
    kernel_size: 1
    weight_filler {
      type: "xavier"
    }
  }
}
layer {
  name: "fire8/relu_expand1x1"
  type: "ReLU"
  bottom: "fire8/expand1x1"
  top: "fire8/expand1x1"
}
layer {
  name: "fire8/expand3x3"
  type: "Convolution"
  bottom: "fire8/squeeze1x1"
  top: "fire8/expand3x3"
  convolution_param {
    num_output: 256
    pad: 1
    kernel_size: 3
    weight_filler {
      type: "xavier"
    }
  }
}
layer {
  name: "fire8/relu_expand3x3"
  type: "ReLU"
  bottom: "fire8/expand3x3"
  top: "fire8/expand3x3"
}
layer {
  name: "fire8/concat"
  type: "Concat"
  bottom: "fire8/expand1x1"
  bottom: "fire8/expand3x3"
  top: "fire8/concat"
}
layer {
  name: "pool8"
  type: "Pooling"
  bottom: "fire8/concat"
  top: "pool8"
  pooling_param {
    pool: MAX
    kernel_size: 3
    stride: 2
  }
}
layer {
  name: "fire9/squeeze1x1"
  type: "Convolution"
  bottom: "pool8"
  top: "fire9/squeeze1x1"
  convolution_param {
    num_output: 64
    kernel_size: 1
    weight_filler {
      type: "xavier"
    }
  }
}
layer {
  name: "fire9/relu_squeeze1x1"
  type: "ReLU"
  bottom: "fire9/squeeze1x1"
  top: "fire9/squeeze1x1"
}
layer {
  name: "fire9/expand1x1"
  type: "Convolution"
  bottom: "fire9/squeeze1x1"
  top: "fire9/expand1x1"
  convolution_param {
    num_output: 256
    kernel_size: 1
    weight_filler {
      type: "xavier"
    }
  }
}
layer {
  name: "fire9/relu_expand1x1"
  type: "ReLU"
  bottom: "fire9/expand1x1"
  top: "fire9/expand1x1"
}
layer {
  name: "fire9/expand3x3"
  type: "Convolution"
  bottom: "fire9/squeeze1x1"
  top: "fire9/expand3x3"
  convolution_param {
    num_output: 256
    pad: 1
    kernel_size: 3
    weight_filler {
      type: "xavier"
    }
  }
}
layer {
  name: "fire9/relu_expand3x3"
  type: "ReLU"
  bottom: "fire9/expand3x3"
  top: "fire9/expand3x3"
}
layer {
  name: "fire9/concat"
  type: "Concat"
  bottom: "fire9/expand1x1"
  bottom: "fire9/expand3x3"
  top: "fire9/concat"
}
layer {
  name: "drop9"
  type: "Dropout"
  bottom: "fire9/concat"
  top: "fire9/concat"
  dropout_param {
    dropout_ratio: 0.5
  }
}
layer {
  name: "conv10"
  type: "Convolution"
  bottom: "fire9/concat"
  top: "conv10"
  convolution_param {
    num_output: 1000
    pad: 1
    kernel_size: 1
    weight_filler {
      type: "gaussian"
      mean: 0
      std: 0.01
    }
  }
}
layer {
  name: "relu_conv10"
  type: "ReLU"
  bottom: "conv10"
  top: "conv10"
}
layer {
  name: "pool10"
  type: "Pooling"
  bottom: "conv10"
  top: "pool10"
  pooling_param {
    pool: AVE
    global_pooling: true
  }
}
layer {
  name: "accuracy"
  type: "Accuracy"
  bottom: "pool10"
  bottom: "label"
  top: "accuracy"
  include {
    phase: TEST
  }
}
layer {
  name: "accuracy_top5"
  type: "Accuracy"
  bottom: "pool10"
  bottom: "label"
  top: "accuracy_top5"
  include {
    phase: TEST
  }
  accuracy_param {
    top_k: 5
  }
}
I1014 22:27:13.288247  9093 layer_factory.hpp:77] Creating layer data
I1014 22:27:13.304455  9093 db_lmdb.cpp:35] Opened lmdb examples/imagenet/ilsvrc12_val_lmdb
I1014 22:27:13.304574  9093 net.cpp:84] Creating Layer data
I1014 22:27:13.304620  9093 net.cpp:380] data -> data
I1014 22:27:13.304647  9093 net.cpp:380] data -> label
I1014 22:27:13.305244  9093 data_layer.cpp:45] output data size: 25,3,227,227
I1014 22:27:13.364365  9093 net.cpp:122] Setting up data
I1014 22:27:13.364405  9093 net.cpp:129] Top shape: 25 3 227 227 (3864675)
I1014 22:27:13.364413  9093 net.cpp:129] Top shape: 25 (25)
I1014 22:27:13.364416  9093 net.cpp:137] Memory required for data: 15458800
I1014 22:27:13.364433  9093 layer_factory.hpp:77] Creating layer label_data_1_split
I1014 22:27:13.364460  9093 net.cpp:84] Creating Layer label_data_1_split
I1014 22:27:13.364468  9093 net.cpp:406] label_data_1_split <- label
I1014 22:27:13.364485  9093 net.cpp:380] label_data_1_split -> label_data_1_split_0
I1014 22:27:13.364504  9093 net.cpp:380] label_data_1_split -> label_data_1_split_1
I1014 22:27:13.364727  9093 net.cpp:122] Setting up label_data_1_split
I1014 22:27:13.364744  9093 net.cpp:129] Top shape: 25 (25)
I1014 22:27:13.364749  9093 net.cpp:129] Top shape: 25 (25)
I1014 22:27:13.364761  9093 net.cpp:137] Memory required for data: 15459000
I1014 22:27:13.364765  9093 layer_factory.hpp:77] Creating layer conv1
I1014 22:27:13.364783  9093 net.cpp:84] Creating Layer conv1
I1014 22:27:13.364789  9093 net.cpp:406] conv1 <- data
I1014 22:27:13.364796  9093 net.cpp:380] conv1 -> conv1
I1014 22:27:13.368932  9093 net.cpp:122] Setting up conv1
I1014 22:27:13.368950  9093 net.cpp:129] Top shape: 25 96 111 111 (29570400)
I1014 22:27:13.368955  9093 net.cpp:137] Memory required for data: 133740600
I1014 22:27:13.368969  9093 layer_factory.hpp:77] Creating layer relu_conv1
I1014 22:27:13.368978  9093 net.cpp:84] Creating Layer relu_conv1
I1014 22:27:13.368983  9093 net.cpp:406] relu_conv1 <- conv1
I1014 22:27:13.368990  9093 net.cpp:367] relu_conv1 -> conv1 (in-place)
I1014 22:27:13.369345  9093 net.cpp:122] Setting up relu_conv1
I1014 22:27:13.369356  9093 net.cpp:129] Top shape: 25 96 111 111 (29570400)
I1014 22:27:13.369360  9093 net.cpp:137] Memory required for data: 252022200
I1014 22:27:13.369364  9093 layer_factory.hpp:77] Creating layer pool1
I1014 22:27:13.369377  9093 net.cpp:84] Creating Layer pool1
I1014 22:27:13.369381  9093 net.cpp:406] pool1 <- conv1
I1014 22:27:13.369388  9093 net.cpp:380] pool1 -> pool1
I1014 22:27:13.369463  9093 net.cpp:122] Setting up pool1
I1014 22:27:13.369482  9093 net.cpp:129] Top shape: 25 96 55 55 (7260000)
I1014 22:27:13.369485  9093 net.cpp:137] Memory required for data: 281062200
I1014 22:27:13.369489  9093 layer_factory.hpp:77] Creating layer fire2/squeeze1x1
I1014 22:27:13.369500  9093 net.cpp:84] Creating Layer fire2/squeeze1x1
I1014 22:27:13.369506  9093 net.cpp:406] fire2/squeeze1x1 <- pool1
I1014 22:27:13.369513  9093 net.cpp:380] fire2/squeeze1x1 -> fire2/squeeze1x1
I1014 22:27:13.371551  9093 net.cpp:122] Setting up fire2/squeeze1x1
I1014 22:27:13.371572  9093 net.cpp:129] Top shape: 25 16 55 55 (1210000)
I1014 22:27:13.371577  9093 net.cpp:137] Memory required for data: 285902200
I1014 22:27:13.371630  9093 layer_factory.hpp:77] Creating layer fire2/relu_squeeze1x1
I1014 22:27:13.371639  9093 net.cpp:84] Creating Layer fire2/relu_squeeze1x1
I1014 22:27:13.371644  9093 net.cpp:406] fire2/relu_squeeze1x1 <- fire2/squeeze1x1
I1014 22:27:13.371650  9093 net.cpp:367] fire2/relu_squeeze1x1 -> fire2/squeeze1x1 (in-place)
I1014 22:27:13.372473  9093 net.cpp:122] Setting up fire2/relu_squeeze1x1
I1014 22:27:13.372490  9093 net.cpp:129] Top shape: 25 16 55 55 (1210000)
I1014 22:27:13.372495  9093 net.cpp:137] Memory required for data: 290742200
I1014 22:27:13.372499  9093 layer_factory.hpp:77] Creating layer fire2/squeeze1x1_fire2/relu_squeeze1x1_0_split
I1014 22:27:13.372510  9093 net.cpp:84] Creating Layer fire2/squeeze1x1_fire2/relu_squeeze1x1_0_split
I1014 22:27:13.372514  9093 net.cpp:406] fire2/squeeze1x1_fire2/relu_squeeze1x1_0_split <- fire2/squeeze1x1
I1014 22:27:13.372526  9093 net.cpp:380] fire2/squeeze1x1_fire2/relu_squeeze1x1_0_split -> fire2/squeeze1x1_fire2/relu_squeeze1x1_0_split_0
I1014 22:27:13.372540  9093 net.cpp:380] fire2/squeeze1x1_fire2/relu_squeeze1x1_0_split -> fire2/squeeze1x1_fire2/relu_squeeze1x1_0_split_1
I1014 22:27:13.372619  9093 net.cpp:122] Setting up fire2/squeeze1x1_fire2/relu_squeeze1x1_0_split
I1014 22:27:13.372628  9093 net.cpp:129] Top shape: 25 16 55 55 (1210000)
I1014 22:27:13.372639  9093 net.cpp:129] Top shape: 25 16 55 55 (1210000)
I1014 22:27:13.372647  9093 net.cpp:137] Memory required for data: 300422200
I1014 22:27:13.372650  9093 layer_factory.hpp:77] Creating layer fire2/expand1x1
I1014 22:27:13.372670  9093 net.cpp:84] Creating Layer fire2/expand1x1
I1014 22:27:13.372678  9093 net.cpp:406] fire2/expand1x1 <- fire2/squeeze1x1_fire2/relu_squeeze1x1_0_split_0
I1014 22:27:13.372694  9093 net.cpp:380] fire2/expand1x1 -> fire2/expand1x1
I1014 22:27:13.374742  9093 net.cpp:122] Setting up fire2/expand1x1
I1014 22:27:13.374760  9093 net.cpp:129] Top shape: 25 64 55 55 (4840000)
I1014 22:27:13.374766  9093 net.cpp:137] Memory required for data: 319782200
I1014 22:27:13.374783  9093 layer_factory.hpp:77] Creating layer fire2/relu_expand1x1
I1014 22:27:13.374794  9093 net.cpp:84] Creating Layer fire2/relu_expand1x1
I1014 22:27:13.374799  9093 net.cpp:406] fire2/relu_expand1x1 <- fire2/expand1x1
I1014 22:27:13.374814  9093 net.cpp:367] fire2/relu_expand1x1 -> fire2/expand1x1 (in-place)
I1014 22:27:13.375169  9093 net.cpp:122] Setting up fire2/relu_expand1x1
I1014 22:27:13.375180  9093 net.cpp:129] Top shape: 25 64 55 55 (4840000)
I1014 22:27:13.375185  9093 net.cpp:137] Memory required for data: 339142200
I1014 22:27:13.375188  9093 layer_factory.hpp:77] Creating layer fire2/expand3x3
I1014 22:27:13.375201  9093 net.cpp:84] Creating Layer fire2/expand3x3
I1014 22:27:13.375207  9093 net.cpp:406] fire2/expand3x3 <- fire2/squeeze1x1_fire2/relu_squeeze1x1_0_split_1
I1014 22:27:13.375216  9093 net.cpp:380] fire2/expand3x3 -> fire2/expand3x3
I1014 22:27:13.377347  9093 net.cpp:122] Setting up fire2/expand3x3
I1014 22:27:13.377365  9093 net.cpp:129] Top shape: 25 64 55 55 (4840000)
I1014 22:27:13.377374  9093 net.cpp:137] Memory required for data: 358502200
I1014 22:27:13.377387  9093 layer_factory.hpp:77] Creating layer fire2/relu_expand3x3
I1014 22:27:13.377399  9093 net.cpp:84] Creating Layer fire2/relu_expand3x3
I1014 22:27:13.377405  9093 net.cpp:406] fire2/relu_expand3x3 <- fire2/expand3x3
I1014 22:27:13.377421  9093 net.cpp:367] fire2/relu_expand3x3 -> fire2/expand3x3 (in-place)
I1014 22:27:13.377787  9093 net.cpp:122] Setting up fire2/relu_expand3x3
I1014 22:27:13.377800  9093 net.cpp:129] Top shape: 25 64 55 55 (4840000)
I1014 22:27:13.377805  9093 net.cpp:137] Memory required for data: 377862200
I1014 22:27:13.377811  9093 layer_factory.hpp:77] Creating layer fire2/concat
I1014 22:27:13.377821  9093 net.cpp:84] Creating Layer fire2/concat
I1014 22:27:13.377830  9093 net.cpp:406] fire2/concat <- fire2/expand1x1
I1014 22:27:13.377835  9093 net.cpp:406] fire2/concat <- fire2/expand3x3
I1014 22:27:13.377845  9093 net.cpp:380] fire2/concat -> fire2/concat
I1014 22:27:13.377918  9093 net.cpp:122] Setting up fire2/concat
I1014 22:27:13.377930  9093 net.cpp:129] Top shape: 25 128 55 55 (9680000)
I1014 22:27:13.377936  9093 net.cpp:137] Memory required for data: 416582200
I1014 22:27:13.377943  9093 layer_factory.hpp:77] Creating layer fire3/squeeze1x1
I1014 22:27:13.377959  9093 net.cpp:84] Creating Layer fire3/squeeze1x1
I1014 22:27:13.377966  9093 net.cpp:406] fire3/squeeze1x1 <- fire2/concat
I1014 22:27:13.377976  9093 net.cpp:380] fire3/squeeze1x1 -> fire3/squeeze1x1
I1014 22:27:13.379966  9093 net.cpp:122] Setting up fire3/squeeze1x1
I1014 22:27:13.379982  9093 net.cpp:129] Top shape: 25 16 55 55 (1210000)
I1014 22:27:13.379987  9093 net.cpp:137] Memory required for data: 421422200
I1014 22:27:13.379998  9093 layer_factory.hpp:77] Creating layer fire3/relu_squeeze1x1
I1014 22:27:13.380010  9093 net.cpp:84] Creating Layer fire3/relu_squeeze1x1
I1014 22:27:13.380017  9093 net.cpp:406] fire3/relu_squeeze1x1 <- fire3/squeeze1x1
I1014 22:27:13.380025  9093 net.cpp:367] fire3/relu_squeeze1x1 -> fire3/squeeze1x1 (in-place)
I1014 22:27:13.382254  9093 net.cpp:122] Setting up fire3/relu_squeeze1x1
I1014 22:27:13.382270  9093 net.cpp:129] Top shape: 25 16 55 55 (1210000)
I1014 22:27:13.382275  9093 net.cpp:137] Memory required for data: 426262200
I1014 22:27:13.382287  9093 layer_factory.hpp:77] Creating layer fire3/squeeze1x1_fire3/relu_squeeze1x1_0_split
I1014 22:27:13.382299  9093 net.cpp:84] Creating Layer fire3/squeeze1x1_fire3/relu_squeeze1x1_0_split
I1014 22:27:13.382306  9093 net.cpp:406] fire3/squeeze1x1_fire3/relu_squeeze1x1_0_split <- fire3/squeeze1x1
I1014 22:27:13.382313  9093 net.cpp:380] fire3/squeeze1x1_fire3/relu_squeeze1x1_0_split -> fire3/squeeze1x1_fire3/relu_squeeze1x1_0_split_0
I1014 22:27:13.382323  9093 net.cpp:380] fire3/squeeze1x1_fire3/relu_squeeze1x1_0_split -> fire3/squeeze1x1_fire3/relu_squeeze1x1_0_split_1
I1014 22:27:13.382395  9093 net.cpp:122] Setting up fire3/squeeze1x1_fire3/relu_squeeze1x1_0_split
I1014 22:27:13.382402  9093 net.cpp:129] Top shape: 25 16 55 55 (1210000)
I1014 22:27:13.382407  9093 net.cpp:129] Top shape: 25 16 55 55 (1210000)
I1014 22:27:13.382411  9093 net.cpp:137] Memory required for data: 435942200
I1014 22:27:13.382414  9093 layer_factory.hpp:77] Creating layer fire3/expand1x1
I1014 22:27:13.382432  9093 net.cpp:84] Creating Layer fire3/expand1x1
I1014 22:27:13.382438  9093 net.cpp:406] fire3/expand1x1 <- fire3/squeeze1x1_fire3/relu_squeeze1x1_0_split_0
I1014 22:27:13.382446  9093 net.cpp:380] fire3/expand1x1 -> fire3/expand1x1
I1014 22:27:13.384388  9093 net.cpp:122] Setting up fire3/expand1x1
I1014 22:27:13.384404  9093 net.cpp:129] Top shape: 25 64 55 55 (4840000)
I1014 22:27:13.384408  9093 net.cpp:137] Memory required for data: 455302200
I1014 22:27:13.384416  9093 layer_factory.hpp:77] Creating layer fire3/relu_expand1x1
I1014 22:27:13.384426  9093 net.cpp:84] Creating Layer fire3/relu_expand1x1
I1014 22:27:13.384430  9093 net.cpp:406] fire3/relu_expand1x1 <- fire3/expand1x1
I1014 22:27:13.384436  9093 net.cpp:367] fire3/relu_expand1x1 -> fire3/expand1x1 (in-place)
I1014 22:27:13.384804  9093 net.cpp:122] Setting up fire3/relu_expand1x1
I1014 22:27:13.384815  9093 net.cpp:129] Top shape: 25 64 55 55 (4840000)
I1014 22:27:13.384819  9093 net.cpp:137] Memory required for data: 474662200
I1014 22:27:13.384822  9093 layer_factory.hpp:77] Creating layer fire3/expand3x3
I1014 22:27:13.384838  9093 net.cpp:84] Creating Layer fire3/expand3x3
I1014 22:27:13.384842  9093 net.cpp:406] fire3/expand3x3 <- fire3/squeeze1x1_fire3/relu_squeeze1x1_0_split_1
I1014 22:27:13.384852  9093 net.cpp:380] fire3/expand3x3 -> fire3/expand3x3
I1014 22:27:13.386873  9093 net.cpp:122] Setting up fire3/expand3x3
I1014 22:27:13.386891  9093 net.cpp:129] Top shape: 25 64 55 55 (4840000)
I1014 22:27:13.386895  9093 net.cpp:137] Memory required for data: 494022200
I1014 22:27:13.386903  9093 layer_factory.hpp:77] Creating layer fire3/relu_expand3x3
I1014 22:27:13.386912  9093 net.cpp:84] Creating Layer fire3/relu_expand3x3
I1014 22:27:13.386934  9093 net.cpp:406] fire3/relu_expand3x3 <- fire3/expand3x3
I1014 22:27:13.386940  9093 net.cpp:367] fire3/relu_expand3x3 -> fire3/expand3x3 (in-place)
I1014 22:27:13.387295  9093 net.cpp:122] Setting up fire3/relu_expand3x3
I1014 22:27:13.387305  9093 net.cpp:129] Top shape: 25 64 55 55 (4840000)
I1014 22:27:13.387310  9093 net.cpp:137] Memory required for data: 513382200
I1014 22:27:13.387313  9093 layer_factory.hpp:77] Creating layer fire3/concat
I1014 22:27:13.387320  9093 net.cpp:84] Creating Layer fire3/concat
I1014 22:27:13.387323  9093 net.cpp:406] fire3/concat <- fire3/expand1x1
I1014 22:27:13.387329  9093 net.cpp:406] fire3/concat <- fire3/expand3x3
I1014 22:27:13.387336  9093 net.cpp:380] fire3/concat -> fire3/concat
I1014 22:27:13.387377  9093 net.cpp:122] Setting up fire3/concat
I1014 22:27:13.387387  9093 net.cpp:129] Top shape: 25 128 55 55 (9680000)
I1014 22:27:13.387392  9093 net.cpp:137] Memory required for data: 552102200
I1014 22:27:13.387394  9093 layer_factory.hpp:77] Creating layer fire4/squeeze1x1
I1014 22:27:13.387403  9093 net.cpp:84] Creating Layer fire4/squeeze1x1
I1014 22:27:13.387408  9093 net.cpp:406] fire4/squeeze1x1 <- fire3/concat
I1014 22:27:13.387418  9093 net.cpp:380] fire4/squeeze1x1 -> fire4/squeeze1x1
I1014 22:27:13.389359  9093 net.cpp:122] Setting up fire4/squeeze1x1
I1014 22:27:13.389375  9093 net.cpp:129] Top shape: 25 32 55 55 (2420000)
I1014 22:27:13.389379  9093 net.cpp:137] Memory required for data: 561782200
I1014 22:27:13.389387  9093 layer_factory.hpp:77] Creating layer fire4/relu_squeeze1x1
I1014 22:27:13.389397  9093 net.cpp:84] Creating Layer fire4/relu_squeeze1x1
I1014 22:27:13.389400  9093 net.cpp:406] fire4/relu_squeeze1x1 <- fire4/squeeze1x1
I1014 22:27:13.389406  9093 net.cpp:367] fire4/relu_squeeze1x1 -> fire4/squeeze1x1 (in-place)
I1014 22:27:13.390163  9093 net.cpp:122] Setting up fire4/relu_squeeze1x1
I1014 22:27:13.390187  9093 net.cpp:129] Top shape: 25 32 55 55 (2420000)
I1014 22:27:13.390192  9093 net.cpp:137] Memory required for data: 571462200
I1014 22:27:13.390194  9093 layer_factory.hpp:77] Creating layer fire4/squeeze1x1_fire4/relu_squeeze1x1_0_split
I1014 22:27:13.390206  9093 net.cpp:84] Creating Layer fire4/squeeze1x1_fire4/relu_squeeze1x1_0_split
I1014 22:27:13.390210  9093 net.cpp:406] fire4/squeeze1x1_fire4/relu_squeeze1x1_0_split <- fire4/squeeze1x1
I1014 22:27:13.390216  9093 net.cpp:380] fire4/squeeze1x1_fire4/relu_squeeze1x1_0_split -> fire4/squeeze1x1_fire4/relu_squeeze1x1_0_split_0
I1014 22:27:13.390225  9093 net.cpp:380] fire4/squeeze1x1_fire4/relu_squeeze1x1_0_split -> fire4/squeeze1x1_fire4/relu_squeeze1x1_0_split_1
I1014 22:27:13.390295  9093 net.cpp:122] Setting up fire4/squeeze1x1_fire4/relu_squeeze1x1_0_split
I1014 22:27:13.390303  9093 net.cpp:129] Top shape: 25 32 55 55 (2420000)
I1014 22:27:13.390307  9093 net.cpp:129] Top shape: 25 32 55 55 (2420000)
I1014 22:27:13.390311  9093 net.cpp:137] Memory required for data: 590822200
I1014 22:27:13.390314  9093 layer_factory.hpp:77] Creating layer fire4/expand1x1
I1014 22:27:13.390326  9093 net.cpp:84] Creating Layer fire4/expand1x1
I1014 22:27:13.390332  9093 net.cpp:406] fire4/expand1x1 <- fire4/squeeze1x1_fire4/relu_squeeze1x1_0_split_0
I1014 22:27:13.390341  9093 net.cpp:380] fire4/expand1x1 -> fire4/expand1x1
I1014 22:27:13.392211  9093 net.cpp:122] Setting up fire4/expand1x1
I1014 22:27:13.392226  9093 net.cpp:129] Top shape: 25 128 55 55 (9680000)
I1014 22:27:13.392230  9093 net.cpp:137] Memory required for data: 629542200
I1014 22:27:13.392249  9093 layer_factory.hpp:77] Creating layer fire4/relu_expand1x1
I1014 22:27:13.392257  9093 net.cpp:84] Creating Layer fire4/relu_expand1x1
I1014 22:27:13.392261  9093 net.cpp:406] fire4/relu_expand1x1 <- fire4/expand1x1
I1014 22:27:13.392267  9093 net.cpp:367] fire4/relu_expand1x1 -> fire4/expand1x1 (in-place)
I1014 22:27:13.392657  9093 net.cpp:122] Setting up fire4/relu_expand1x1
I1014 22:27:13.392669  9093 net.cpp:129] Top shape: 25 128 55 55 (9680000)
I1014 22:27:13.392673  9093 net.cpp:137] Memory required for data: 668262200
I1014 22:27:13.392693  9093 layer_factory.hpp:77] Creating layer fire4/expand3x3
I1014 22:27:13.392704  9093 net.cpp:84] Creating Layer fire4/expand3x3
I1014 22:27:13.392709  9093 net.cpp:406] fire4/expand3x3 <- fire4/squeeze1x1_fire4/relu_squeeze1x1_0_split_1
I1014 22:27:13.392719  9093 net.cpp:380] fire4/expand3x3 -> fire4/expand3x3
I1014 22:27:13.396191  9093 net.cpp:122] Setting up fire4/expand3x3
I1014 22:27:13.396206  9093 net.cpp:129] Top shape: 25 128 55 55 (9680000)
I1014 22:27:13.396211  9093 net.cpp:137] Memory required for data: 706982200
I1014 22:27:13.396219  9093 layer_factory.hpp:77] Creating layer fire4/relu_expand3x3
I1014 22:27:13.396225  9093 net.cpp:84] Creating Layer fire4/relu_expand3x3
I1014 22:27:13.396230  9093 net.cpp:406] fire4/relu_expand3x3 <- fire4/expand3x3
I1014 22:27:13.396241  9093 net.cpp:367] fire4/relu_expand3x3 -> fire4/expand3x3 (in-place)
I1014 22:27:13.396579  9093 net.cpp:122] Setting up fire4/relu_expand3x3
I1014 22:27:13.396592  9093 net.cpp:129] Top shape: 25 128 55 55 (9680000)
I1014 22:27:13.396595  9093 net.cpp:137] Memory required for data: 745702200
I1014 22:27:13.396600  9093 layer_factory.hpp:77] Creating layer fire4/concat
I1014 22:27:13.396605  9093 net.cpp:84] Creating Layer fire4/concat
I1014 22:27:13.396610  9093 net.cpp:406] fire4/concat <- fire4/expand1x1
I1014 22:27:13.396613  9093 net.cpp:406] fire4/concat <- fire4/expand3x3
I1014 22:27:13.396620  9093 net.cpp:380] fire4/concat -> fire4/concat
I1014 22:27:13.396667  9093 net.cpp:122] Setting up fire4/concat
I1014 22:27:13.396675  9093 net.cpp:129] Top shape: 25 256 55 55 (19360000)
I1014 22:27:13.396679  9093 net.cpp:137] Memory required for data: 823142200
I1014 22:27:13.396687  9093 layer_factory.hpp:77] Creating layer pool4
I1014 22:27:13.396697  9093 net.cpp:84] Creating Layer pool4
I1014 22:27:13.396703  9093 net.cpp:406] pool4 <- fire4/concat
I1014 22:27:13.396713  9093 net.cpp:380] pool4 -> pool4
I1014 22:27:13.396783  9093 net.cpp:122] Setting up pool4
I1014 22:27:13.396793  9093 net.cpp:129] Top shape: 25 256 27 27 (4665600)
I1014 22:27:13.396800  9093 net.cpp:137] Memory required for data: 841804600
I1014 22:27:13.396803  9093 layer_factory.hpp:77] Creating layer fire5/squeeze1x1
I1014 22:27:13.396819  9093 net.cpp:84] Creating Layer fire5/squeeze1x1
I1014 22:27:13.396824  9093 net.cpp:406] fire5/squeeze1x1 <- pool4
I1014 22:27:13.396832  9093 net.cpp:380] fire5/squeeze1x1 -> fire5/squeeze1x1
I1014 22:27:13.398771  9093 net.cpp:122] Setting up fire5/squeeze1x1
I1014 22:27:13.398788  9093 net.cpp:129] Top shape: 25 32 27 27 (583200)
I1014 22:27:13.398792  9093 net.cpp:137] Memory required for data: 844137400
I1014 22:27:13.398803  9093 layer_factory.hpp:77] Creating layer fire5/relu_squeeze1x1
I1014 22:27:13.398818  9093 net.cpp:84] Creating Layer fire5/relu_squeeze1x1
I1014 22:27:13.398826  9093 net.cpp:406] fire5/relu_squeeze1x1 <- fire5/squeeze1x1
I1014 22:27:13.398833  9093 net.cpp:367] fire5/relu_squeeze1x1 -> fire5/squeeze1x1 (in-place)
I1014 22:27:13.399173  9093 net.cpp:122] Setting up fire5/relu_squeeze1x1
I1014 22:27:13.399183  9093 net.cpp:129] Top shape: 25 32 27 27 (583200)
I1014 22:27:13.399189  9093 net.cpp:137] Memory required for data: 846470200
I1014 22:27:13.399194  9093 layer_factory.hpp:77] Creating layer fire5/squeeze1x1_fire5/relu_squeeze1x1_0_split
I1014 22:27:13.399221  9093 net.cpp:84] Creating Layer fire5/squeeze1x1_fire5/relu_squeeze1x1_0_split
I1014 22:27:13.399226  9093 net.cpp:406] fire5/squeeze1x1_fire5/relu_squeeze1x1_0_split <- fire5/squeeze1x1
I1014 22:27:13.399235  9093 net.cpp:380] fire5/squeeze1x1_fire5/relu_squeeze1x1_0_split -> fire5/squeeze1x1_fire5/relu_squeeze1x1_0_split_0
I1014 22:27:13.399248  9093 net.cpp:380] fire5/squeeze1x1_fire5/relu_squeeze1x1_0_split -> fire5/squeeze1x1_fire5/relu_squeeze1x1_0_split_1
I1014 22:27:13.399322  9093 net.cpp:122] Setting up fire5/squeeze1x1_fire5/relu_squeeze1x1_0_split
I1014 22:27:13.399329  9093 net.cpp:129] Top shape: 25 32 27 27 (583200)
I1014 22:27:13.399336  9093 net.cpp:129] Top shape: 25 32 27 27 (583200)
I1014 22:27:13.399358  9093 net.cpp:137] Memory required for data: 851135800
I1014 22:27:13.399363  9093 layer_factory.hpp:77] Creating layer fire5/expand1x1
I1014 22:27:13.399379  9093 net.cpp:84] Creating Layer fire5/expand1x1
I1014 22:27:13.399384  9093 net.cpp:406] fire5/expand1x1 <- fire5/squeeze1x1_fire5/relu_squeeze1x1_0_split_0
I1014 22:27:13.399392  9093 net.cpp:380] fire5/expand1x1 -> fire5/expand1x1
I1014 22:27:13.401284  9093 net.cpp:122] Setting up fire5/expand1x1
I1014 22:27:13.401299  9093 net.cpp:129] Top shape: 25 128 27 27 (2332800)
I1014 22:27:13.401309  9093 net.cpp:137] Memory required for data: 860467000
I1014 22:27:13.401320  9093 layer_factory.hpp:77] Creating layer fire5/relu_expand1x1
I1014 22:27:13.401335  9093 net.cpp:84] Creating Layer fire5/relu_expand1x1
I1014 22:27:13.401342  9093 net.cpp:406] fire5/relu_expand1x1 <- fire5/expand1x1
I1014 22:27:13.401351  9093 net.cpp:367] fire5/relu_expand1x1 -> fire5/expand1x1 (in-place)
I1014 22:27:13.402106  9093 net.cpp:122] Setting up fire5/relu_expand1x1
I1014 22:27:13.402122  9093 net.cpp:129] Top shape: 25 128 27 27 (2332800)
I1014 22:27:13.402129  9093 net.cpp:137] Memory required for data: 869798200
I1014 22:27:13.402137  9093 layer_factory.hpp:77] Creating layer fire5/expand3x3
I1014 22:27:13.402153  9093 net.cpp:84] Creating Layer fire5/expand3x3
I1014 22:27:13.402159  9093 net.cpp:406] fire5/expand3x3 <- fire5/squeeze1x1_fire5/relu_squeeze1x1_0_split_1
I1014 22:27:13.402182  9093 net.cpp:380] fire5/expand3x3 -> fire5/expand3x3
I1014 22:27:13.404278  9093 net.cpp:122] Setting up fire5/expand3x3
I1014 22:27:13.404292  9093 net.cpp:129] Top shape: 25 128 27 27 (2332800)
I1014 22:27:13.404295  9093 net.cpp:137] Memory required for data: 879129400
I1014 22:27:13.404302  9093 layer_factory.hpp:77] Creating layer fire5/relu_expand3x3
I1014 22:27:13.404311  9093 net.cpp:84] Creating Layer fire5/relu_expand3x3
I1014 22:27:13.404315  9093 net.cpp:406] fire5/relu_expand3x3 <- fire5/expand3x3
I1014 22:27:13.404323  9093 net.cpp:367] fire5/relu_expand3x3 -> fire5/expand3x3 (in-place)
I1014 22:27:13.404642  9093 net.cpp:122] Setting up fire5/relu_expand3x3
I1014 22:27:13.404655  9093 net.cpp:129] Top shape: 25 128 27 27 (2332800)
I1014 22:27:13.404659  9093 net.cpp:137] Memory required for data: 888460600
I1014 22:27:13.404662  9093 layer_factory.hpp:77] Creating layer fire5/concat
I1014 22:27:13.404669  9093 net.cpp:84] Creating Layer fire5/concat
I1014 22:27:13.404673  9093 net.cpp:406] fire5/concat <- fire5/expand1x1
I1014 22:27:13.404678  9093 net.cpp:406] fire5/concat <- fire5/expand3x3
I1014 22:27:13.404683  9093 net.cpp:380] fire5/concat -> fire5/concat
I1014 22:27:13.404724  9093 net.cpp:122] Setting up fire5/concat
I1014 22:27:13.404732  9093 net.cpp:129] Top shape: 25 256 27 27 (4665600)
I1014 22:27:13.404736  9093 net.cpp:137] Memory required for data: 907123000
I1014 22:27:13.404738  9093 layer_factory.hpp:77] Creating layer fire6/squeeze1x1
I1014 22:27:13.404748  9093 net.cpp:84] Creating Layer fire6/squeeze1x1
I1014 22:27:13.404754  9093 net.cpp:406] fire6/squeeze1x1 <- fire5/concat
I1014 22:27:13.404762  9093 net.cpp:380] fire6/squeeze1x1 -> fire6/squeeze1x1
I1014 22:27:13.409085  9093 net.cpp:122] Setting up fire6/squeeze1x1
I1014 22:27:13.409101  9093 net.cpp:129] Top shape: 25 48 27 27 (874800)
I1014 22:27:13.409116  9093 net.cpp:137] Memory required for data: 910622200
I1014 22:27:13.409123  9093 layer_factory.hpp:77] Creating layer fire6/relu_squeeze1x1
I1014 22:27:13.409137  9093 net.cpp:84] Creating Layer fire6/relu_squeeze1x1
I1014 22:27:13.409142  9093 net.cpp:406] fire6/relu_squeeze1x1 <- fire6/squeeze1x1
I1014 22:27:13.409148  9093 net.cpp:367] fire6/relu_squeeze1x1 -> fire6/squeeze1x1 (in-place)
I1014 22:27:13.409478  9093 net.cpp:122] Setting up fire6/relu_squeeze1x1
I1014 22:27:13.409488  9093 net.cpp:129] Top shape: 25 48 27 27 (874800)
I1014 22:27:13.409492  9093 net.cpp:137] Memory required for data: 914121400
I1014 22:27:13.409495  9093 layer_factory.hpp:77] Creating layer fire6/squeeze1x1_fire6/relu_squeeze1x1_0_split
I1014 22:27:13.409523  9093 net.cpp:84] Creating Layer fire6/squeeze1x1_fire6/relu_squeeze1x1_0_split
I1014 22:27:13.409528  9093 net.cpp:406] fire6/squeeze1x1_fire6/relu_squeeze1x1_0_split <- fire6/squeeze1x1
I1014 22:27:13.409534  9093 net.cpp:380] fire6/squeeze1x1_fire6/relu_squeeze1x1_0_split -> fire6/squeeze1x1_fire6/relu_squeeze1x1_0_split_0
I1014 22:27:13.409556  9093 net.cpp:380] fire6/squeeze1x1_fire6/relu_squeeze1x1_0_split -> fire6/squeeze1x1_fire6/relu_squeeze1x1_0_split_1
I1014 22:27:13.409620  9093 net.cpp:122] Setting up fire6/squeeze1x1_fire6/relu_squeeze1x1_0_split
I1014 22:27:13.409628  9093 net.cpp:129] Top shape: 25 48 27 27 (874800)
I1014 22:27:13.409632  9093 net.cpp:129] Top shape: 25 48 27 27 (874800)
I1014 22:27:13.409636  9093 net.cpp:137] Memory required for data: 921119800
I1014 22:27:13.409639  9093 layer_factory.hpp:77] Creating layer fire6/expand1x1
I1014 22:27:13.409649  9093 net.cpp:84] Creating Layer fire6/expand1x1
I1014 22:27:13.409654  9093 net.cpp:406] fire6/expand1x1 <- fire6/squeeze1x1_fire6/relu_squeeze1x1_0_split_0
I1014 22:27:13.409662  9093 net.cpp:380] fire6/expand1x1 -> fire6/expand1x1
I1014 22:27:13.411522  9093 net.cpp:122] Setting up fire6/expand1x1
I1014 22:27:13.411541  9093 net.cpp:129] Top shape: 25 192 27 27 (3499200)
I1014 22:27:13.411546  9093 net.cpp:137] Memory required for data: 935116600
I1014 22:27:13.411554  9093 layer_factory.hpp:77] Creating layer fire6/relu_expand1x1
I1014 22:27:13.411563  9093 net.cpp:84] Creating Layer fire6/relu_expand1x1
I1014 22:27:13.411568  9093 net.cpp:406] fire6/relu_expand1x1 <- fire6/expand1x1
I1014 22:27:13.411573  9093 net.cpp:367] fire6/relu_expand1x1 -> fire6/expand1x1 (in-place)
I1014 22:27:13.412293  9093 net.cpp:122] Setting up fire6/relu_expand1x1
I1014 22:27:13.412307  9093 net.cpp:129] Top shape: 25 192 27 27 (3499200)
I1014 22:27:13.412312  9093 net.cpp:137] Memory required for data: 949113400
I1014 22:27:13.412317  9093 layer_factory.hpp:77] Creating layer fire6/expand3x3
I1014 22:27:13.412329  9093 net.cpp:84] Creating Layer fire6/expand3x3
I1014 22:27:13.412334  9093 net.cpp:406] fire6/expand3x3 <- fire6/squeeze1x1_fire6/relu_squeeze1x1_0_split_1
I1014 22:27:13.412343  9093 net.cpp:380] fire6/expand3x3 -> fire6/expand3x3
I1014 22:27:13.416700  9093 net.cpp:122] Setting up fire6/expand3x3
I1014 22:27:13.416718  9093 net.cpp:129] Top shape: 25 192 27 27 (3499200)
I1014 22:27:13.416720  9093 net.cpp:137] Memory required for data: 963110200
I1014 22:27:13.416728  9093 layer_factory.hpp:77] Creating layer fire6/relu_expand3x3
I1014 22:27:13.416749  9093 net.cpp:84] Creating Layer fire6/relu_expand3x3
I1014 22:27:13.416755  9093 net.cpp:406] fire6/relu_expand3x3 <- fire6/expand3x3
I1014 22:27:13.416764  9093 net.cpp:367] fire6/relu_expand3x3 -> fire6/expand3x3 (in-place)
I1014 22:27:13.417088  9093 net.cpp:122] Setting up fire6/relu_expand3x3
I1014 22:27:13.417100  9093 net.cpp:129] Top shape: 25 192 27 27 (3499200)
I1014 22:27:13.417105  9093 net.cpp:137] Memory required for data: 977107000
I1014 22:27:13.417109  9093 layer_factory.hpp:77] Creating layer fire6/concat
I1014 22:27:13.417114  9093 net.cpp:84] Creating Layer fire6/concat
I1014 22:27:13.417117  9093 net.cpp:406] fire6/concat <- fire6/expand1x1
I1014 22:27:13.417122  9093 net.cpp:406] fire6/concat <- fire6/expand3x3
I1014 22:27:13.417127  9093 net.cpp:380] fire6/concat -> fire6/concat
I1014 22:27:13.417172  9093 net.cpp:122] Setting up fire6/concat
I1014 22:27:13.417179  9093 net.cpp:129] Top shape: 25 384 27 27 (6998400)
I1014 22:27:13.417183  9093 net.cpp:137] Memory required for data: 1005100600
I1014 22:27:13.417186  9093 layer_factory.hpp:77] Creating layer fire7/squeeze1x1
I1014 22:27:13.417196  9093 net.cpp:84] Creating Layer fire7/squeeze1x1
I1014 22:27:13.417201  9093 net.cpp:406] fire7/squeeze1x1 <- fire6/concat
I1014 22:27:13.417209  9093 net.cpp:380] fire7/squeeze1x1 -> fire7/squeeze1x1
I1014 22:27:13.419263  9093 net.cpp:122] Setting up fire7/squeeze1x1
I1014 22:27:13.419279  9093 net.cpp:129] Top shape: 25 48 27 27 (874800)
I1014 22:27:13.419301  9093 net.cpp:137] Memory required for data: 1008599800
I1014 22:27:13.419320  9093 layer_factory.hpp:77] Creating layer fire7/relu_squeeze1x1
I1014 22:27:13.419332  9093 net.cpp:84] Creating Layer fire7/relu_squeeze1x1
I1014 22:27:13.419337  9093 net.cpp:406] fire7/relu_squeeze1x1 <- fire7/squeeze1x1
I1014 22:27:13.419343  9093 net.cpp:367] fire7/relu_squeeze1x1 -> fire7/squeeze1x1 (in-place)
I1014 22:27:13.419649  9093 net.cpp:122] Setting up fire7/relu_squeeze1x1
I1014 22:27:13.419661  9093 net.cpp:129] Top shape: 25 48 27 27 (874800)
I1014 22:27:13.419663  9093 net.cpp:137] Memory required for data: 1012099000
I1014 22:27:13.419667  9093 layer_factory.hpp:77] Creating layer fire7/squeeze1x1_fire7/relu_squeeze1x1_0_split
I1014 22:27:13.419673  9093 net.cpp:84] Creating Layer fire7/squeeze1x1_fire7/relu_squeeze1x1_0_split
I1014 22:27:13.419680  9093 net.cpp:406] fire7/squeeze1x1_fire7/relu_squeeze1x1_0_split <- fire7/squeeze1x1
I1014 22:27:13.419687  9093 net.cpp:380] fire7/squeeze1x1_fire7/relu_squeeze1x1_0_split -> fire7/squeeze1x1_fire7/relu_squeeze1x1_0_split_0
I1014 22:27:13.419692  9093 net.cpp:380] fire7/squeeze1x1_fire7/relu_squeeze1x1_0_split -> fire7/squeeze1x1_fire7/relu_squeeze1x1_0_split_1
I1014 22:27:13.419754  9093 net.cpp:122] Setting up fire7/squeeze1x1_fire7/relu_squeeze1x1_0_split
I1014 22:27:13.419760  9093 net.cpp:129] Top shape: 25 48 27 27 (874800)
I1014 22:27:13.419764  9093 net.cpp:129] Top shape: 25 48 27 27 (874800)
I1014 22:27:13.419766  9093 net.cpp:137] Memory required for data: 1019097400
I1014 22:27:13.419770  9093 layer_factory.hpp:77] Creating layer fire7/expand1x1
I1014 22:27:13.419780  9093 net.cpp:84] Creating Layer fire7/expand1x1
I1014 22:27:13.419785  9093 net.cpp:406] fire7/expand1x1 <- fire7/squeeze1x1_fire7/relu_squeeze1x1_0_split_0
I1014 22:27:13.419792  9093 net.cpp:380] fire7/expand1x1 -> fire7/expand1x1
I1014 22:27:13.421535  9093 net.cpp:122] Setting up fire7/expand1x1
I1014 22:27:13.421550  9093 net.cpp:129] Top shape: 25 192 27 27 (3499200)
I1014 22:27:13.421555  9093 net.cpp:137] Memory required for data: 1033094200
I1014 22:27:13.421561  9093 layer_factory.hpp:77] Creating layer fire7/relu_expand1x1
I1014 22:27:13.421571  9093 net.cpp:84] Creating Layer fire7/relu_expand1x1
I1014 22:27:13.421577  9093 net.cpp:406] fire7/relu_expand1x1 <- fire7/expand1x1
I1014 22:27:13.421584  9093 net.cpp:367] fire7/relu_expand1x1 -> fire7/expand1x1 (in-place)
I1014 22:27:13.422276  9093 net.cpp:122] Setting up fire7/relu_expand1x1
I1014 22:27:13.422293  9093 net.cpp:129] Top shape: 25 192 27 27 (3499200)
I1014 22:27:13.422298  9093 net.cpp:137] Memory required for data: 1047091000
I1014 22:27:13.422302  9093 layer_factory.hpp:77] Creating layer fire7/expand3x3
I1014 22:27:13.422310  9093 net.cpp:84] Creating Layer fire7/expand3x3
I1014 22:27:13.422317  9093 net.cpp:406] fire7/expand3x3 <- fire7/squeeze1x1_fire7/relu_squeeze1x1_0_split_1
I1014 22:27:13.422325  9093 net.cpp:380] fire7/expand3x3 -> fire7/expand3x3
I1014 22:27:13.424914  9093 net.cpp:122] Setting up fire7/expand3x3
I1014 22:27:13.424929  9093 net.cpp:129] Top shape: 25 192 27 27 (3499200)
I1014 22:27:13.424937  9093 net.cpp:137] Memory required for data: 1061087800
I1014 22:27:13.424943  9093 layer_factory.hpp:77] Creating layer fire7/relu_expand3x3
I1014 22:27:13.424949  9093 net.cpp:84] Creating Layer fire7/relu_expand3x3
I1014 22:27:13.424954  9093 net.cpp:406] fire7/relu_expand3x3 <- fire7/expand3x3
I1014 22:27:13.424960  9093 net.cpp:367] fire7/relu_expand3x3 -> fire7/expand3x3 (in-place)
I1014 22:27:13.425274  9093 net.cpp:122] Setting up fire7/relu_expand3x3
I1014 22:27:13.425284  9093 net.cpp:129] Top shape: 25 192 27 27 (3499200)
I1014 22:27:13.425287  9093 net.cpp:137] Memory required for data: 1075084600
I1014 22:27:13.425292  9093 layer_factory.hpp:77] Creating layer fire7/concat
I1014 22:27:13.425297  9093 net.cpp:84] Creating Layer fire7/concat
I1014 22:27:13.425300  9093 net.cpp:406] fire7/concat <- fire7/expand1x1
I1014 22:27:13.425304  9093 net.cpp:406] fire7/concat <- fire7/expand3x3
I1014 22:27:13.425328  9093 net.cpp:380] fire7/concat -> fire7/concat
I1014 22:27:13.425367  9093 net.cpp:122] Setting up fire7/concat
I1014 22:27:13.425374  9093 net.cpp:129] Top shape: 25 384 27 27 (6998400)
I1014 22:27:13.425376  9093 net.cpp:137] Memory required for data: 1103078200
I1014 22:27:13.425380  9093 layer_factory.hpp:77] Creating layer fire8/squeeze1x1
I1014 22:27:13.425395  9093 net.cpp:84] Creating Layer fire8/squeeze1x1
I1014 22:27:13.425400  9093 net.cpp:406] fire8/squeeze1x1 <- fire7/concat
I1014 22:27:13.425405  9093 net.cpp:380] fire8/squeeze1x1 -> fire8/squeeze1x1
I1014 22:27:13.427275  9093 net.cpp:122] Setting up fire8/squeeze1x1
I1014 22:27:13.427292  9093 net.cpp:129] Top shape: 25 64 27 27 (1166400)
I1014 22:27:13.427296  9093 net.cpp:137] Memory required for data: 1107743800
I1014 22:27:13.427304  9093 layer_factory.hpp:77] Creating layer fire8/relu_squeeze1x1
I1014 22:27:13.427312  9093 net.cpp:84] Creating Layer fire8/relu_squeeze1x1
I1014 22:27:13.427317  9093 net.cpp:406] fire8/relu_squeeze1x1 <- fire8/squeeze1x1
I1014 22:27:13.427322  9093 net.cpp:367] fire8/relu_squeeze1x1 -> fire8/squeeze1x1 (in-place)
I1014 22:27:13.427611  9093 net.cpp:122] Setting up fire8/relu_squeeze1x1
I1014 22:27:13.427623  9093 net.cpp:129] Top shape: 25 64 27 27 (1166400)
I1014 22:27:13.427628  9093 net.cpp:137] Memory required for data: 1112409400
I1014 22:27:13.427630  9093 layer_factory.hpp:77] Creating layer fire8/squeeze1x1_fire8/relu_squeeze1x1_0_split
I1014 22:27:13.427636  9093 net.cpp:84] Creating Layer fire8/squeeze1x1_fire8/relu_squeeze1x1_0_split
I1014 22:27:13.427641  9093 net.cpp:406] fire8/squeeze1x1_fire8/relu_squeeze1x1_0_split <- fire8/squeeze1x1
I1014 22:27:13.427647  9093 net.cpp:380] fire8/squeeze1x1_fire8/relu_squeeze1x1_0_split -> fire8/squeeze1x1_fire8/relu_squeeze1x1_0_split_0
I1014 22:27:13.427655  9093 net.cpp:380] fire8/squeeze1x1_fire8/relu_squeeze1x1_0_split -> fire8/squeeze1x1_fire8/relu_squeeze1x1_0_split_1
I1014 22:27:13.427712  9093 net.cpp:122] Setting up fire8/squeeze1x1_fire8/relu_squeeze1x1_0_split
I1014 22:27:13.427719  9093 net.cpp:129] Top shape: 25 64 27 27 (1166400)
I1014 22:27:13.427723  9093 net.cpp:129] Top shape: 25 64 27 27 (1166400)
I1014 22:27:13.427726  9093 net.cpp:137] Memory required for data: 1121740600
I1014 22:27:13.427728  9093 layer_factory.hpp:77] Creating layer fire8/expand1x1
I1014 22:27:13.427739  9093 net.cpp:84] Creating Layer fire8/expand1x1
I1014 22:27:13.427743  9093 net.cpp:406] fire8/expand1x1 <- fire8/squeeze1x1_fire8/relu_squeeze1x1_0_split_0
I1014 22:27:13.427750  9093 net.cpp:380] fire8/expand1x1 -> fire8/expand1x1
I1014 22:27:13.429471  9093 net.cpp:122] Setting up fire8/expand1x1
I1014 22:27:13.429486  9093 net.cpp:129] Top shape: 25 256 27 27 (4665600)
I1014 22:27:13.429491  9093 net.cpp:137] Memory required for data: 1140403000
I1014 22:27:13.429498  9093 layer_factory.hpp:77] Creating layer fire8/relu_expand1x1
I1014 22:27:13.429507  9093 net.cpp:84] Creating Layer fire8/relu_expand1x1
I1014 22:27:13.429512  9093 net.cpp:406] fire8/relu_expand1x1 <- fire8/expand1x1
I1014 22:27:13.429518  9093 net.cpp:367] fire8/relu_expand1x1 -> fire8/expand1x1 (in-place)
I1014 22:27:13.429805  9093 net.cpp:122] Setting up fire8/relu_expand1x1
I1014 22:27:13.429816  9093 net.cpp:129] Top shape: 25 256 27 27 (4665600)
I1014 22:27:13.429821  9093 net.cpp:137] Memory required for data: 1159065400
I1014 22:27:13.429824  9093 layer_factory.hpp:77] Creating layer fire8/expand3x3
I1014 22:27:13.429836  9093 net.cpp:84] Creating Layer fire8/expand3x3
I1014 22:27:13.429841  9093 net.cpp:406] fire8/expand3x3 <- fire8/squeeze1x1_fire8/relu_squeeze1x1_0_split_1
I1014 22:27:13.429847  9093 net.cpp:380] fire8/expand3x3 -> fire8/expand3x3
I1014 22:27:13.433132  9093 net.cpp:122] Setting up fire8/expand3x3
I1014 22:27:13.433153  9093 net.cpp:129] Top shape: 25 256 27 27 (4665600)
I1014 22:27:13.433159  9093 net.cpp:137] Memory required for data: 1177727800
I1014 22:27:13.433167  9093 layer_factory.hpp:77] Creating layer fire8/relu_expand3x3
I1014 22:27:13.433177  9093 net.cpp:84] Creating Layer fire8/relu_expand3x3
I1014 22:27:13.433197  9093 net.cpp:406] fire8/relu_expand3x3 <- fire8/expand3x3
I1014 22:27:13.433204  9093 net.cpp:367] fire8/relu_expand3x3 -> fire8/expand3x3 (in-place)
I1014 22:27:13.433898  9093 net.cpp:122] Setting up fire8/relu_expand3x3
I1014 22:27:13.433914  9093 net.cpp:129] Top shape: 25 256 27 27 (4665600)
I1014 22:27:13.433917  9093 net.cpp:137] Memory required for data: 1196390200
I1014 22:27:13.433920  9093 layer_factory.hpp:77] Creating layer fire8/concat
I1014 22:27:13.433928  9093 net.cpp:84] Creating Layer fire8/concat
I1014 22:27:13.433930  9093 net.cpp:406] fire8/concat <- fire8/expand1x1
I1014 22:27:13.433935  9093 net.cpp:406] fire8/concat <- fire8/expand3x3
I1014 22:27:13.433943  9093 net.cpp:380] fire8/concat -> fire8/concat
I1014 22:27:13.433982  9093 net.cpp:122] Setting up fire8/concat
I1014 22:27:13.433991  9093 net.cpp:129] Top shape: 25 512 27 27 (9331200)
I1014 22:27:13.433995  9093 net.cpp:137] Memory required for data: 1233715000
I1014 22:27:13.433996  9093 layer_factory.hpp:77] Creating layer pool8
I1014 22:27:13.434003  9093 net.cpp:84] Creating Layer pool8
I1014 22:27:13.434006  9093 net.cpp:406] pool8 <- fire8/concat
I1014 22:27:13.434011  9093 net.cpp:380] pool8 -> pool8
I1014 22:27:13.434068  9093 net.cpp:122] Setting up pool8
I1014 22:27:13.434077  9093 net.cpp:129] Top shape: 25 512 13 13 (2163200)
I1014 22:27:13.434078  9093 net.cpp:137] Memory required for data: 1242367800
I1014 22:27:13.434082  9093 layer_factory.hpp:77] Creating layer fire9/squeeze1x1
I1014 22:27:13.434092  9093 net.cpp:84] Creating Layer fire9/squeeze1x1
I1014 22:27:13.434096  9093 net.cpp:406] fire9/squeeze1x1 <- pool8
I1014 22:27:13.434103  9093 net.cpp:380] fire9/squeeze1x1 -> fire9/squeeze1x1
I1014 22:27:13.435963  9093 net.cpp:122] Setting up fire9/squeeze1x1
I1014 22:27:13.435978  9093 net.cpp:129] Top shape: 25 64 13 13 (270400)
I1014 22:27:13.435982  9093 net.cpp:137] Memory required for data: 1243449400
I1014 22:27:13.435988  9093 layer_factory.hpp:77] Creating layer fire9/relu_squeeze1x1
I1014 22:27:13.436014  9093 net.cpp:84] Creating Layer fire9/relu_squeeze1x1
I1014 22:27:13.436020  9093 net.cpp:406] fire9/relu_squeeze1x1 <- fire9/squeeze1x1
I1014 22:27:13.436027  9093 net.cpp:367] fire9/relu_squeeze1x1 -> fire9/squeeze1x1 (in-place)
I1014 22:27:13.436318  9093 net.cpp:122] Setting up fire9/relu_squeeze1x1
I1014 22:27:13.436327  9093 net.cpp:129] Top shape: 25 64 13 13 (270400)
I1014 22:27:13.436331  9093 net.cpp:137] Memory required for data: 1244531000
I1014 22:27:13.436336  9093 layer_factory.hpp:77] Creating layer fire9/squeeze1x1_fire9/relu_squeeze1x1_0_split
I1014 22:27:13.436343  9093 net.cpp:84] Creating Layer fire9/squeeze1x1_fire9/relu_squeeze1x1_0_split
I1014 22:27:13.436347  9093 net.cpp:406] fire9/squeeze1x1_fire9/relu_squeeze1x1_0_split <- fire9/squeeze1x1
I1014 22:27:13.436353  9093 net.cpp:380] fire9/squeeze1x1_fire9/relu_squeeze1x1_0_split -> fire9/squeeze1x1_fire9/relu_squeeze1x1_0_split_0
I1014 22:27:13.436362  9093 net.cpp:380] fire9/squeeze1x1_fire9/relu_squeeze1x1_0_split -> fire9/squeeze1x1_fire9/relu_squeeze1x1_0_split_1
I1014 22:27:13.436416  9093 net.cpp:122] Setting up fire9/squeeze1x1_fire9/relu_squeeze1x1_0_split
I1014 22:27:13.436425  9093 net.cpp:129] Top shape: 25 64 13 13 (270400)
I1014 22:27:13.436429  9093 net.cpp:129] Top shape: 25 64 13 13 (270400)
I1014 22:27:13.436432  9093 net.cpp:137] Memory required for data: 1246694200
I1014 22:27:13.436435  9093 layer_factory.hpp:77] Creating layer fire9/expand1x1
I1014 22:27:13.436444  9093 net.cpp:84] Creating Layer fire9/expand1x1
I1014 22:27:13.436446  9093 net.cpp:406] fire9/expand1x1 <- fire9/squeeze1x1_fire9/relu_squeeze1x1_0_split_0
I1014 22:27:13.436455  9093 net.cpp:380] fire9/expand1x1 -> fire9/expand1x1
I1014 22:27:13.438155  9093 net.cpp:122] Setting up fire9/expand1x1
I1014 22:27:13.438175  9093 net.cpp:129] Top shape: 25 256 13 13 (1081600)
I1014 22:27:13.438179  9093 net.cpp:137] Memory required for data: 1251020600
I1014 22:27:13.438185  9093 layer_factory.hpp:77] Creating layer fire9/relu_expand1x1
I1014 22:27:13.438205  9093 net.cpp:84] Creating Layer fire9/relu_expand1x1
I1014 22:27:13.438210  9093 net.cpp:406] fire9/relu_expand1x1 <- fire9/expand1x1
I1014 22:27:13.438217  9093 net.cpp:367] fire9/relu_expand1x1 -> fire9/expand1x1 (in-place)
I1014 22:27:13.438519  9093 net.cpp:122] Setting up fire9/relu_expand1x1
I1014 22:27:13.438529  9093 net.cpp:129] Top shape: 25 256 13 13 (1081600)
I1014 22:27:13.438531  9093 net.cpp:137] Memory required for data: 1255347000
I1014 22:27:13.438534  9093 layer_factory.hpp:77] Creating layer fire9/expand3x3
I1014 22:27:13.438545  9093 net.cpp:84] Creating Layer fire9/expand3x3
I1014 22:27:13.438549  9093 net.cpp:406] fire9/expand3x3 <- fire9/squeeze1x1_fire9/relu_squeeze1x1_0_split_1
I1014 22:27:13.438554  9093 net.cpp:380] fire9/expand3x3 -> fire9/expand3x3
I1014 22:27:13.441352  9093 net.cpp:122] Setting up fire9/expand3x3
I1014 22:27:13.441366  9093 net.cpp:129] Top shape: 25 256 13 13 (1081600)
I1014 22:27:13.441370  9093 net.cpp:137] Memory required for data: 1259673400
I1014 22:27:13.441376  9093 layer_factory.hpp:77] Creating layer fire9/relu_expand3x3
I1014 22:27:13.441383  9093 net.cpp:84] Creating Layer fire9/relu_expand3x3
I1014 22:27:13.441387  9093 net.cpp:406] fire9/relu_expand3x3 <- fire9/expand3x3
I1014 22:27:13.441392  9093 net.cpp:367] fire9/relu_expand3x3 -> fire9/expand3x3 (in-place)
I1014 22:27:13.442026  9093 net.cpp:122] Setting up fire9/relu_expand3x3
I1014 22:27:13.442039  9093 net.cpp:129] Top shape: 25 256 13 13 (1081600)
I1014 22:27:13.442042  9093 net.cpp:137] Memory required for data: 1263999800
I1014 22:27:13.442045  9093 layer_factory.hpp:77] Creating layer fire9/concat
I1014 22:27:13.442051  9093 net.cpp:84] Creating Layer fire9/concat
I1014 22:27:13.442054  9093 net.cpp:406] fire9/concat <- fire9/expand1x1
I1014 22:27:13.442059  9093 net.cpp:406] fire9/concat <- fire9/expand3x3
I1014 22:27:13.442065  9093 net.cpp:380] fire9/concat -> fire9/concat
I1014 22:27:13.442102  9093 net.cpp:122] Setting up fire9/concat
I1014 22:27:13.442113  9093 net.cpp:129] Top shape: 25 512 13 13 (2163200)
I1014 22:27:13.442116  9093 net.cpp:137] Memory required for data: 1272652600
I1014 22:27:13.442119  9093 layer_factory.hpp:77] Creating layer drop9
I1014 22:27:13.442124  9093 net.cpp:84] Creating Layer drop9
I1014 22:27:13.442127  9093 net.cpp:406] drop9 <- fire9/concat
I1014 22:27:13.442132  9093 net.cpp:367] drop9 -> fire9/concat (in-place)
I1014 22:27:13.442173  9093 net.cpp:122] Setting up drop9
I1014 22:27:13.442179  9093 net.cpp:129] Top shape: 25 512 13 13 (2163200)
I1014 22:27:13.442186  9093 net.cpp:137] Memory required for data: 1281305400
I1014 22:27:13.442190  9093 layer_factory.hpp:77] Creating layer conv10
I1014 22:27:13.442199  9093 net.cpp:84] Creating Layer conv10
I1014 22:27:13.442203  9093 net.cpp:406] conv10 <- fire9/concat
I1014 22:27:13.442209  9093 net.cpp:380] conv10 -> conv10
I1014 22:27:13.450258  9093 net.cpp:122] Setting up conv10
I1014 22:27:13.450271  9093 net.cpp:129] Top shape: 25 1000 15 15 (5625000)
I1014 22:27:13.450274  9093 net.cpp:137] Memory required for data: 1303805400
I1014 22:27:13.450280  9093 layer_factory.hpp:77] Creating layer relu_conv10
I1014 22:27:13.450289  9093 net.cpp:84] Creating Layer relu_conv10
I1014 22:27:13.450291  9093 net.cpp:406] relu_conv10 <- conv10
I1014 22:27:13.450296  9093 net.cpp:367] relu_conv10 -> conv10 (in-place)
I1014 22:27:13.450687  9093 net.cpp:122] Setting up relu_conv10
I1014 22:27:13.450696  9093 net.cpp:129] Top shape: 25 1000 15 15 (5625000)
I1014 22:27:13.450714  9093 net.cpp:137] Memory required for data: 1326305400
I1014 22:27:13.450716  9093 layer_factory.hpp:77] Creating layer pool10
I1014 22:27:13.450721  9093 net.cpp:84] Creating Layer pool10
I1014 22:27:13.450742  9093 net.cpp:406] pool10 <- conv10
I1014 22:27:13.450747  9093 net.cpp:380] pool10 -> pool10
I1014 22:27:13.450994  9093 net.cpp:122] Setting up pool10
I1014 22:27:13.451004  9093 net.cpp:129] Top shape: 25 1000 1 1 (25000)
I1014 22:27:13.451006  9093 net.cpp:137] Memory required for data: 1326405400
I1014 22:27:13.451025  9093 layer_factory.hpp:77] Creating layer pool10_pool10_0_split
I1014 22:27:13.451031  9093 net.cpp:84] Creating Layer pool10_pool10_0_split
I1014 22:27:13.451033  9093 net.cpp:406] pool10_pool10_0_split <- pool10
I1014 22:27:13.451038  9093 net.cpp:380] pool10_pool10_0_split -> pool10_pool10_0_split_0
I1014 22:27:13.451062  9093 net.cpp:380] pool10_pool10_0_split -> pool10_pool10_0_split_1
I1014 22:27:13.451108  9093 net.cpp:122] Setting up pool10_pool10_0_split
I1014 22:27:13.451114  9093 net.cpp:129] Top shape: 25 1000 1 1 (25000)
I1014 22:27:13.451117  9093 net.cpp:129] Top shape: 25 1000 1 1 (25000)
I1014 22:27:13.451119  9093 net.cpp:137] Memory required for data: 1326605400
I1014 22:27:13.451122  9093 layer_factory.hpp:77] Creating layer accuracy
I1014 22:27:13.451129  9093 net.cpp:84] Creating Layer accuracy
I1014 22:27:13.451133  9093 net.cpp:406] accuracy <- pool10_pool10_0_split_0
I1014 22:27:13.451135  9093 net.cpp:406] accuracy <- label_data_1_split_0
I1014 22:27:13.451139  9093 net.cpp:380] accuracy -> accuracy
…
